outputs/gene_cell_matrix_time1-GGSL_V3-Flux-20250307145512/model_training_log_mpo/best-model-epoch=009-val_total_loss=0.245.ckpt (torch, 896975 bytes, 1566 tensors)

models.M_1.adaptive_layer_1.gate f4 [2]
000000 72 40 91 bc 9a bf a2 3c
       -0.017730925 0.019866753

models.M_1.adaptive_layer_1.linear.weight f4 [2, 1]
000000 48 68 13 3f 54 3f 23 3f
       0.57580996 0.63768506

models.M_1.adaptive_layer_1.linear.bias f4 [2]
000000 e1 43 32 bb 0c 69 24 3f
       -0.0027201104 0.6422279

models.M_1.bn1.weight f4 [2]
000000 00 ab 7c 3f 64 60 7b 3f
       0.98698425 0.98193955

models.M_1.bn1.bias f4 [2]
000000 86 2d 42 3d a7 fe a7 bd
       0.047406696 -0.08202868

models.M_1.bn1.running_mean f4 [2]
000000 8a a1 20 3e 8d 48 07 3f
       0.15686622 0.5284508

models.M_1.bn1.running_var f4 [2]
000000 5d ad 74 3c 9a 6e 96 3c
       0.014933911 0.018363286

models.M_1.adaptive_layer_2.gate f4 [4]
000000 09 35 c5 3d 9e fd 77 bc 12 86 dc 3c 0f ac 4a 3b
       0.09629256 -0.015136151 0.026919398 0.0030925309

models.M_1.adaptive_layer_2.linear.weight f4 [4, 2]
000000 b0 99 4e be ee 40 f4 3d 60 4f 77 be 8e da f1 3e
       -0.20175815 0.11926447 -0.24151373 0.47237056
000010 e0 a5 12 3f de e9 11 bf 37 c3 bb 3e 06 9b e5 3b
       0.57284355 -0.5699748 0.36672375 0.0070070056

models.M_1.adaptive_layer_2.linear.bias f4 [4]
000000 86 9c 52 3e a2 5b 0c bc 79 c4 80 3d d9 95 f5 3c
       0.20567521 -0.008566769 0.06287474 0.02997868

models.M_1.bn2.weight f4 [4]
000000 32 f7 9b 3f 7f 47 48 3f 76 35 6a 3f 38 66 37 3f
       1.2184813 0.78234094 0.91487825 0.7164035

models.M_1.bn2.bias f4 [4]
000000 ba 79 2a 3e 7e f5 cd bd c9 b9 b7 3d e8 a2 01 be
       0.16647997 -0.100565895 0.089709826 -0.126598

models.M_1.bn2.running_mean f4 [4]
000000 e3 41 c4 3d 0e fd bd 3d 41 33 7d 3d 61 c5 50 3e
       0.095828794 0.09276782 0.061816458 0.20387794

models.M_1.bn2.running_var f4 [4]
000000 79 d0 46 3b 4c 6c 10 3c 7e d2 cb 3a e2 19 07 3d
       0.0030336662 0.0088148825 0.0015550402 0.03298367

models.M_1.adaptive_layer_3.gate f4 [8]
000000 c1 84 f3 bc f0 9b 8f 3c 1d 19 36 3c 9e d2 b7 3c
       -0.029726388 0.017530411 0.011114386 0.022439297
000010 ab 01 bc bc 3d de 16 ba 21 83 24 bc 32 95 f6 3c
       -0.022950014 -0.0005755162 -0.010041029 0.030100439

models.M_1.adaptive_layer_3.linear.weight f4 [8, 4]
000000 e9 20 00 3f 3b f2 45 bd d5 f0 70 be 7d 9d e8 bc
       0.50050217 -0.048326712 -0.2352937 -0.028395409
000010 a2 b7 cc be 73 45 3a be 77 48 b9 be 91 bd 34 3e
       -0.3998385 -0.18190555 -0.361881 0.17650439
000020 97 3f 06 bf 51 2a 1f be 66 70 cf be dd 26 92 be
       -0.5244078 -0.15543486 -0.4051544 -0.28545275
000030 97 f7 b9 3d 49 c3 d9 be 82 3a 16 3f ff 1e af be
       0.09080427 -0.42531803 0.58683026 -0.34203336
000040 d8 93 f8 3e 93 d0 38 bd 7d 07 8f be 50 30 b4 3d
       0.48550296 -0.045120787 -0.279354 0.087982774
000050 81 18 fd 3b 0a 08 d2 3e 86 88 ae 3d f9 13 3d be
       0.0077238684 0.41021758 0.085221335 -0.1846465
000060 09 4b 49 3e 5e 72 07 be 52 85 9d 3d e3 2c cd 3e
       0.1965753 -0.13227221 0.076914445 0.40073308
000070 42 b0 9d 3e cd fb 88 be 97 9b a0 3e 7e f1 b8 3d
       0.30798537 -0.2675461 0.31368706 0.09030436

models.M_1.adaptive_layer_3.linear.bias f4 [8]
000000 9c ef eb bc 95 0e dc bd 11 4d 8d be c2 df 07 3d
       -0.028800778 -0.10744969 -0.2759786 0.033172376
000010 37 9a 2d be 12 c1 38 3e 81 d2 fc bc 14 39 cb 3c
       -0.1695336 0.180424 -0.030862095 0.02480749

models.M_1.bn3.weight f4 [8]
000000 10 67 8c 3f 13 78 82 3f 22 0c 90 3f 8f 7b 86 3f
       1.0968952 1.0192894 1.1253703 1.0506457
000010 ff f7 81 3f f7 3a 3b 3f 94 87 96 3f 4b 64 61 3f
       1.0153807 0.7313685 1.1760125 0.8804366

models.M_1.bn3.bias f4 [8]
000000 4a 74 c6 3d a6 83 67 3d e8 0f 84 3d e6 42 da bd
       0.09690149 0.056522034 0.064483464 -0.10657291
000010 95 91 f4 3d b3 21 ed bd 03 43 a2 bd c7 72 ca bc
       0.1194183 -0.11578693 -0.07922938 -0.024712933

models.M_1.bn3.running_mean f4 [8]
000000 84 54 ff 3d 8a b0 e8 be ef c4 67 bf 0f b9 44 bc
       0.12467292 -0.4544719 -0.9053487 -0.012007012
000010 e6 a7 8d 3d b1 be ac 3e 3a ae b6 3e 0f 35 8b 3e
       0.0691679 0.33739236 0.356798 0.27188918

models.M_1.bn3.running_var f4 [8]
000000 9f 12 94 3d 8d 2c 0c 3d 47 04 19 3e 18 ca e9 3d
       0.07230114 0.034222174 0.14943038 0.114154994
000010 5a 51 73 3d 0e 9d 7e 3d b6 86 5e 3d 88 5b d2 3c
       0.059403755 0.062161498 0.05432769 0.025678411

models.M_1.fc_out.weight f4 [1, 8]
000000 bd 21 25 3e 43 51 a4 3d 0e e6 a0 3e 21 db 36 be
       0.16126151 0.08023312 0.31425518 -0.17857029
000010 48 94 0d 3e 3e e2 96 bd 42 2d b6 3d 7b 36 1b bd
       0.13826096 -0.07367371 0.08895351 -0.037893753

models.M_2.adaptive_layer_1.gate f4 [8]
000000 4c 4f e9 bc 0a 25 0e bd 0e 2b 2d 39 0a 92 8f 3c
       -0.028480195 -0.034703292 0.00016514605 0.017525692
000010 95 f4 bc bc 83 df 26 bd ae 5c 92 bc 9d f4 96 3c
       -0.023065845 -0.0407405 -0.017866459 0.018427188

models.M_2.adaptive_layer_1.linear.weight f4 [8, 4]
000000 26 2b 4b be 8a bf a2 3e be 19 9b be 79 91 ac be
       -0.19840679 0.31786758 -0.30293077 -0.33704737
000010 fb da 97 be 7f b3 d7 3e 54 0e 55 3e 11 03 ab 3e
       -0.29659256 0.42129132 0.20806247 0.33400777
000020 47 d2 ef be ab 92 f4 be c6 ed af be 65 f8 89 be
       -0.46840116 -0.4776815 -0.34361094 -0.26947322
000030 3d ac 9b 3e 53 fd 5f 3e 73 f1 e3 3e 73 17 8e be
       0.30404845 0.2187398 0.4452015 -0.27752265
000040 59 eb 97 be 6c 08 8f 3e 06 30 90 be 33 df aa 3e
       -0.29671744 0.27936113 -0.2816164 0.33373412
000050 e5 3c 1f be b6 d3 92 3e fe 69 cb be d3 4f 40 be
       -0.15550573 0.28677148 -0.39729303 -0.1878045
000060 ee c7 2e 3e 45 41 0a 3e 00 41 61 bd 56 1e 33 3e
       0.17068455 0.13501461 -0.05499363 0.17492041
000070 aa 6c c8 3e d3 4d 99 be 02 73 a5 be b4 7c bc 3e
       0.39145404 -0.29942188 -0.32314306 0.3681389

models.M_2.adaptive_layer_1.linear.bias f4 [8]
000000 c8 d2 dd bc a6 f7 a0 bc d0 75 58 be d6 f8 78 3c
       -0.027078047 -0.019649338 -0.21138692 0.015196046
000010 8e 2f c2 3a 8b ae 44 bb 7f 45 2a bd 7f 45 ea bb
       0.0014815198 -0.0030011262 -0.041570183 -0.007149398

models.M_2.bn1.weight f4 [8]
000000 92 35 78 3f 61 d7 67 3f 49 3f 7c 3f 8c 77 80 3f
       0.9695674 0.9056302 0.98534065 1.0036483
000010 25 97 69 3f 6e c2 54 3f ef 1c 5f 3f 1a 80 69 3f
       0.91246253 0.83109176 0.87153524 0.9121109

models.M_2.bn1.bias f4 [8]
000000 c4 09 01 bd 2c ad 5f bd 55 a0 81 3d ad 21 35 3e
       -0.031503454 -0.05460851 0.06329409 0.17688628
000010 d5 7e bb 3c 6b 3b 67 bc 19 49 fc bc e7 90 9c bd
       0.022887627 -0.014113287 -0.030796574 -0.076448254

models.M_2.bn1.running_mean f4 [8]
000000 a1 d7 12 3d 99 cc ca 3d 44 3b bf be 73 2a 0b 3e
       0.03585017 0.09902305 -0.37349904 0.13590412
000010 54 9a 5a 3c b2 9d d2 3c 39 d2 b5 3c 13 9e 1c bd
       0.013342459 0.02570996 0.022194969 -0.03823669

models.M_2.bn1.running_var f4 [8]
000000 1d 4c 15 3c c8 c3 69 3c 9f c4 d2 3c bc a3 40 3c
       0.009112385 0.014267869 0.025728522 0.011757787
000010 19 66 1c 3c ec eb 13 3c 2e ac 9f 3b f7 22 91 3c
       0.009545826 0.009028416 0.0048728203 0.017716868

models.M_2.adaptive_layer_2.gate f4 [16]
000000 8d e3 02 3c 74 be 07 bb e8 35 15 3d ba 8c 12 bd
       0.007988823 -0.0020712884 0.036428362 -0.03577874
000010 dc 80 0f bd 3a dc 9a ba 53 30 be bb 51 39 47 bb
       -0.035035 -0.00118149 -0.0058041005 -0.0030399153
000020 78 42 bf 3b 89 8c 2f bc 26 0e 9f bc 43 ec a8 bc
       0.005836781 -0.010714659 -0.019415926 -0.02062047
000030 25 2f ad bc e8 8c 32 bb 6e 54 76 bc 8d 30 92 bb
       -0.021140644 -0.0027244631 -0.015034778 -0.004461354

models.M_2.adaptive_layer_2.linear.weight f4 [16, 8]
000000 d0 c4 dd be f2 c7 ba be 04 d1 32 be d3 1e c3 be
       -0.4331422 -0.3648067 -0.17462546 -0.38109455
000010 50 c2 b3 be c1 fb 3a 3e 94 a8 ee bd 66 18 13 3e
       -0.35109186 0.18260099 -0.116532475 0.14364776
000020 d5 7a aa be 7e d2 52 be 43 2c 24 be d1 35 79 3d
       -0.33296838 -0.20588109 -0.1603251 0.06084234
000030 71 a8 51 be 70 57 05 be ee 37 4f be a5 06 ce 3c
       -0.20474412 -0.13021636 -0.20236179 0.025149653
000040 e6 4e ee bd 46 b0 f2 bc 9e e2 dd be fa 93 a8 be
       -0.116361424 -0.02962507 -0.43336958 -0.32925397
000050 e5 87 5c be b1 4f 03 be b3 2c 84 be 90 6a 95 3e
       -0.21536215 -0.12823369 -0.25815353 0.29182863
000060 6f 1e 9a bc 07 ee 8a 3e 03 82 cf 3d 05 a1 8b be
       -0.01881334 0.27134725 0.1013222 -0.27271286
000070 e1 a8 6c 3e a9 d1 84 bd 7c 35 f7 bd 4e d9 81 be
       0.23111297 -0.06485302 -0.12070748 -0.25361103
000080 37 bd c3 be d0 73 f1 3d ba 82 1b bc 61 97 4b 3d
       -0.38230297 0.117896676 -0.009491617 0.049704913
000090 87 e4 a2 be 24 f0 6c 3e 8e 08 a3 be 69 08 cc bd
       -0.31814978 0.23138481 -0.31842464 -0.099625416
0000a0 37 3c c9 3d 73 13 85 3e c6 9b ad 3e 7a ac 91 3e
       0.09825938 0.259914 0.33907908 0.28451902
0000b0 c5 9e 8a be d3 24 eb 3d f5 63 45 be ba 36 91 bd
       -0.27074257 0.11481633 -0.19276412 -0.070905164
0000c0 0d aa 58 be 4c 73 a6 3e 56 43 ae be ae 2c 99 3d
       -0.21158619 0.3250984 -0.34035748 0.07479225
0000d0 83 af 0e 3e ac 66 03 3e d0 23 64 be e8 09 9a 3e
       0.1393414 0.12832135 -0.22279286 0.30085683
0000e0 7a b5 02 3e ba a0 8e 3c 05 2a bd be f3 33 41 3e
       0.1276454 0.017410625 -0.3694612 0.18867473
0000f0 27 5b a0 bd cd 19 ef bd 07 36 94 3e ac 86 73 3d
       -0.07829886 -0.11674843 0.2894747 0.059454605
000100 1d 01 3a be f4 98 52 be 02 d3 ff 3c aa 57 28 bc
       -0.18164487 -0.2056616 0.031228546 -0.010274807
000110 59 62 8f bc f1 b3 2f be f7 e0 9f be db 9e 9f be
       -0.01750295 -0.17158486 -0.31226322 -0.31175885
000120 69 c9 2b 3d 6e a6 f8 3d 40 1d e8 be 20 cc be 3d
       0.041940127 0.12141119 -0.45334816 0.093162775
000130 cc 06 3e 3e f8 35 8f bd 62 9c 83 bd 68 9b 49 3e
       0.1855728 -0.069927156 -0.06426312 0.19688189
000140 66 25 f9 3d da e1 e0 3d c5 28 43 bd 92 84 71 be
       0.12165336 0.10980578 -0.047646303 -0.23585728
000150 6b 96 4a 3d 08 fc 01 bd 87 e4 58 be b4 d6 26 3e
       0.049459856 -0.031734496 -0.21180926 0.1629284
000160 a0 f9 9a 3e 0d 7a 6b bc 27 2c 8a bd 63 17 26 3d
       0.30268574 -0.014372361 -0.06746703 0.040549647
000170 5e 24 af bd d4 d9 32 bc f6 8b d3 3d bc ae 90 be
       -0.08551858 -0.010916192 0.1032943 -0.28258312
000180 72 df 0c be 01 71 94 3e 40 08 16 3d b3 97 31 bd
       -0.13757113 0.28992465 0.03662896 -0.043357562
000190 a1 85 77 be b5 12 ff bd 71 9b aa be de ee 58 be
       -0.24172069 -0.1245474 -0.33321717 -0.2118487
0001a0 cf 12 fc 3d 73 bd 8b 3e df 6a 94 3d fe f0 55 be
       0.12308275 0.27292976 0.072469465 -0.20892712
0001b0 a6 3e 52 be 9e a4 71 bd ad 1a b8 3e 26 4e e2 3c
       -0.20531711 -0.05899488 0.35957852 0.027625155
0001c0 ef ee 4b be b8 ae 32 3d 78 f8 9f bd b5 8d 80 be
       -0.19915365 0.043623656 -0.078110635 -0.25108114
0001d0 04 d9 05 3e 19 a6 3c be 74 77 2a be 1f 00 d1 be
       0.13071066 -0.18422736 -0.1664713 -0.40820405
0001e0 d1 72 22 3e c6 52 32 3e 9c 00 05 3e b2 7f a0 be
       0.15864111 0.17414388 0.12988514 -0.31347424
0001f0 a4 13 eb be 3d 79 ac be 87 3d b1 3d ae 57 36 3d
       -0.45913422 -0.33686247 0.086543135 0.04451721

models.M_2.adaptive_layer_2.linear.bias f4 [16]
000000 ca 8a a3 ba f7 7d 73 3c d8 68 94 bc 23 c2 71 3c
       -0.0012477275 0.014861575 -0.0181164 0.014755758
000010 8e 2b ee 38 97 38 1e 3b b5 98 a9 bc 68 c6 0c ba
       0.00011356837 0.0024142617 -0.0207027 -0.0005370141
000020 a0 1d 88 bb 56 56 24 bc f8 fe 34 bd 24 35 80 3c
       -0.004153922 -0.01003035 -0.04418847 0.01565034
000030 0e 91 19 bb 74 da 5f bb 4f b7 6f 3c 46 59 07 ba
       -0.0023432407 -0.0034157308 0.0146311065 -0.0005163144

models.M_2.bn2.weight f4 [16]
000000 80 cf 65 3f 45 70 83 3f 43 cc 6a 3f 34 2d 6b 3f
       0.89769745 1.0268637 0.9171793 0.9186585
000010 a0 4e 80 3f 22 3d 6a 3f 27 6e 62 3f c6 b6 68 3f
       1.0023994 0.9149953 0.8844933 0.9090389
000020 d7 e4 76 3f de bb 66 3f bd d1 6f 3f 5b de 66 3f
       0.9644293 0.9013041 0.9367941 0.9018304
000030 81 7f 78 3f 9f dd 80 3f e3 6a 78 3f 7c 91 51 3f
       0.97069556 1.0067633 0.97038096 0.81862617

models.M_2.bn2.bias f4 [16]
000000 1c 1b 3f be 9d 6a b0 3d 48 3d 82 be 20 a4 0b bc
       -0.18662685 0.08614085 -0.2543738 -0.008523017
000010 33 63 98 3d 65 b6 a3 bd 97 4a 26 3c bf 5c aa bc
       0.07440796 -0.07993773 0.01014962 -0.020796178
000020 66 ac 27 3d 45 ca 00 be d6 8a fd bc a3 d7 f0 3d
       0.040935896 -0.1257716 -0.030949991 0.117598794
000030 26 6d d7 bc 41 23 46 3c a7 b7 9a bb 8c 69 97 3c
       -0.026297163 0.012093366 -0.0047216 0.018482946

models.M_2.bn2.running_mean f4 [16]
000000 c0 7d cb be d4 d5 c7 be 71 fc 97 be 51 7c 4c 3d
       -0.39744377 -0.39030325 -0.29684785 0.049923245
000010 a6 ba 00 be 9d 67 57 3e 09 ef b7 3d 77 3d d2 3b
       -0.125712 0.21035619 0.08981139 0.0064160186
000020 0f 8b 9d be 22 8d a2 3d 77 34 6d 3d ac 01 f8 3a
       -0.30770156 0.07937075 0.057911362 0.0018921397
000030 b5 0b 20 be 93 dd fc 3d 53 89 90 be ec df 07 be
       -0.15629466 0.123469494 -0.2822977 -0.13269013

models.M_2.bn2.running_var f4 [16]
000000 27 81 b2 3d 25 e0 8e 3d cd a2 11 3d b3 27 4f 3d
       0.0871604 0.06976346 0.03555565 0.05057497
000010 a8 26 26 3d 0f 11 3c 3d 2c 1f a9 3d 54 dc 7f 3d
       0.04056421 0.045914706 0.08257899 0.06246598
000020 33 5b 83 3d 4d 66 91 3d d0 b0 a7 3c 10 d8 df 3c
       0.06413879 0.070995905 0.020470053 0.027324706
000030 55 7d 7f 3d 3c 47 9a 3c 47 23 1f 3d 3b 78 4b 3d
       0.062375385 0.018832795 0.038852002 0.049675208

models.M_2.adaptive_layer_3.gate f4 [32]
000000 6b c9 05 3c 80 1b 4f bc 77 d3 a5 bb dd cc f8 3c
       0.008165698 -0.012640834 -0.005060609 0.030371124
000010 0f f5 21 3c 6a 82 19 3d ed 62 24 bb 01 ea a4 bb
       0.009885087 0.03747789 -0.0025083378 -0.0050327783
000020 c8 ca 9f bb e5 da 76 3c 70 d8 41 b9 7b a1 6d 3c
       -0.0048764683 0.015066837 -0.00018486544 0.014503832
000030 a9 7e c9 bc 97 f8 fa bb 3b c6 66 3b 64 4c ed bb
       -0.02459653 -0.0076590287 0.003521337 -0.0072417725
000040 75 4c 67 bb 38 e7 96 bb 67 07 80 3c ca 6b 84 3b
       -0.0035293375 -0.0046052 0.01562853 0.00404117
000050 27 a6 49 3c e1 7f 3b bb b4 07 3a 3b bd 12 10 3d
       0.01230768 -0.0028610157 0.002838594 0.03517412
000060 d1 33 72 3b ce 08 08 3c a3 e1 d5 3b 2e 0b f9 37
       0.0036957155 0.00830288 0.006527142 2.9688319e-05
000070 7a 84 d5 ba 3b b8 33 3b 8a f7 b0 bb 00 3d cf bc
       -0.0016290091 0.0027423042 -0.0054006027 -0.025297642

models.M_2.adaptive_layer_3.linear.weight f4 [32, 16]
000000 ff bd d2 3d 06 09 40 3d a0 8f a0 bd 9c ff 8d bd
       0.10290145 0.046883605 -0.07839894 -0.06933519
000010 21 bb e8 bd 9f eb d2 bd 60 aa 42 be 75 4e 92 3e
       -0.11363817 -0.102988474 -0.19010305 0.28575483
000020 6e 01 e6 bc 2c 24 d6 3d 19 c9 5d 3e fb a7 39 3e
       -0.028076854 0.10456118 0.21658744 0.18130486
000030 47 03 b1 bd 56 d5 fe 3d 85 32 33 bd e9 90 54 3e
       -0.08643203 0.12443034 -0.04374935 0.20758404
000040 89 0b 1d 3e cb fa 09 be 21 f7 e0 bc 60 67 c4 bd
       0.15336432 -0.13474576 -0.02746159 -0.0959003
000050 04 87 77 be d7 2a ca 3d 57 27 73 be 2b c1 5c 3d
       -0.24172598 0.09871452 -0.23745476 0.053895157
000060 a5 52 b9 3d 93 99 77 3e 47 81 e2 bd 91 17 8c be
       0.09048966 0.24179678 -0.11059814 -0.2736173
000070 4f 4d 6c 3d 08 66 26 3e f4 5b 72 be 00 62 0c be
       0.057690915 0.1624986 -0.2366789 -0.13709259
000080 43 a1 bb bd a1 9a 4c bd 85 82 35 be 2f 8c 6a bd
       -0.091616176 -0.049952153 -0.1772557 -0.057262596
000090 29 a8 8d b9 73 03 0b be ba 7c 7e 3e c1 23 97 3e
       -0.00027018905 -0.13575535 0.24852267 0.29519466
0000a0 a3 4b cd 3d 81 29 1e 3c c1 85 20 3d dc 7e 20 be
       0.10024192 0.00965345 0.039190058 -0.15673393
0000b0 d6 06 43 be d1 27 11 3e 66 ed 62 bb ee 42 e4 bd
       -0.19045576 0.14175345 -0.0034626364 -0.11145578
0000c0 73 97 9b bd fa e8 24 be c4 de c1 bd 9b 8d b3 bd
       -0.07597246 -0.16104499 -0.09466317 -0.087672435
0000d0 f9 f9 05 be f5 68 07 be b6 e8 25 be 92 77 45 be
       -0.13083638 -0.13223632 -0.16202053 -0.19283894
0000e0 9f 6c 46 3e 1e 97 36 be a1 43 75 bd e1 4c 96 bd
       0.19377373 -0.17831084 -0.05987895 -0.07338882
0000f0 97 cf f2 bd 92 db b7 3d 4b bc 2a 3b 9d f8 3e be
       -0.11856001 0.089774266 0.0026052173 -0.18649526
000100 cf 7d 1d 3d 1d 0d ec 3d 33 d7 19 3d 6e 5a 07 3e
       0.03845006 0.11525939 0.037558746 0.1321809
000110 d8 a0 2a 3e 7d 18 da bd b5 cd 48 3d a2 c9 4e be
       0.1666292 -0.10649202 0.049024303 -0.20194104
000120 ae fe 60 be 81 fd 54 3e cb 9f 33 3d 77 1d 63 be
       -0.21972153 0.20799829 0.043853562 -0.22179209
000130 88 78 8e be 24 4e 28 be ce 5e c4 bd da 03 60 be
       -0.27826333 -0.16436058 -0.09588395 -0.21876469
000140 4b 2e 38 bc f6 bc 44 3e aa 90 c7 3d e8 82 fb bd
       -0.011241506 0.19212708 0.09744389 -0.12280828
000150 66 11 2d be ac 91 be 3d 6e a6 38 be e8 c1 5e 3c
       -0.16901168 0.093051285 -0.18032238 0.013596036
000160 d8 9d 88 3e 79 3a 4c be 53 65 bf bb 99 16 bb 3a
       0.26682925 -0.1994418 -0.005840936 0.0014273702
000170 a5 3e ea bd d9 20 26 be 6b 44 83 be f6 99 8f bd
       -0.1143773 -0.16223468 -0.25638136 -0.070117876
000180 4c bd 33 be 67 29 48 3e 06 7c 16 be 27 54 5c be
       -0.1755268 0.19547044 -0.14695749 -0.21516477
000190 d6 19 10 3a f5 95 a8 bc ab e2 9a bc 2e eb 99 3d
       0.0005497014 -0.020579318 -0.018906912 0.0751556
0001a0 fe 96 85 3d 8e 4f a2 be 7e 39 b2 bd 62 d1 7b 3d
       0.0652294 -0.3170132 -0.08702372 0.06147898
0001b0 e6 fd 7b bc 02 ed a4 be 71 9f 67 3e e4 0c 39 be
       -0.015380358 -0.32212073 0.22619416 -0.18071324
0001c0 3a b9 b5 bd be 39 fd bd ee 2d df 3c ad 34 0b 3e
       -0.0887322 -0.12364529 0.02724358 0.13594313
0001d0 9f 61 02 3e 21 a1 fb 3d 74 10 3d be a3 ee 1f be
       0.12732552 0.12286592 -0.18463308 -0.15618376
0001e0 e9 c9 18 3e 4b af 56 3e c7 17 61 3e 0b d9 12 be
       0.14920773 0.20965306 0.21981727 -0.14340608
0001f0 4f 78 8f 3d 5d 66 45 be 44 b1 58 bd cc 29 a9 3d
       0.07005369 -0.1927733 -0.05290343 0.08259925
000200 bf 54 76 3d c4 92 0c 3e c0 42 53 be fb 31 f4 3c
       0.060139414 0.13727862 -0.20630932 0.029808989
000210 67 86 98 be 90 15 c2 bc 07 4c bb 3d 44 ec fb bd
       -0.2979004 -0.023691922 0.091453604 -0.123009235
000220 ea a2 20 3e 4a 66 98 be ab cb 76 be 7c da 6b 3d
       0.15687147 -0.2976554 -0.2410113 0.05758141
000230 a8 0e d2 bd c5 b0 32 be 90 66 71 be 63 34 c4 3d
       -0.10256702 -0.17450245 -0.2357428 0.095803045
000240 79 7a 61 3e f1 22 41 3d a6 4f 45 bd 02 92 6c be
       0.22019376 0.047152463 -0.04817166 -0.23102573
000250 f1 e4 09 bc bf de 9a 3d 47 ba aa bd 43 ab e2 3c
       -0.0084164 0.07562017 -0.08336311 0.027669555
000260 60 f8 8b 3e 55 ee 81 bd ee 4c 55 3d f5 f4 8c bd
       0.27337933 -0.06344286 0.05207532 -0.06882659
000270 bb 79 8b be dc b8 81 be a5 22 c2 bd dd 6c 5d bc
       -0.2724131 -0.2533635 -0.09479264 -0.013514725
000280 6a db 8f bc 80 0c dc bd 66 29 b4 bd f2 b4 1c 3e
       -0.01756068 -0.10744572 -0.087969586 0.153034
000290 41 a3 35 3d 27 0d ec 3d 62 b1 73 be f0 91 69 be
       0.044345144 0.11525946 -0.23798135 -0.22809577
0002a0 ea 30 de bc d0 00 16 be cb fe 77 be d0 05 e9 bd
       -0.027122933 -0.14648747 -0.2421829 -0.11378062
0002b0 8c 0c ae bd a2 ff 79 be 62 62 e8 3d d8 e2 0b 3e
       -0.08498487 -0.24413922 0.1134689 0.13660753
0002c0 68 53 83 bb bb 1a d4 bd df 15 42 be fb a6 be bd
       -0.0040077455 -0.10356661 -0.18953656 -0.09309193
0002d0 cf 14 75 3c 4f 7f f3 3d 94 3d 80 bd 90 ac d1 bd
       0.014958574 0.118895166 -0.06261745 -0.10237992
0002e0 2b 4b 51 3d 45 3b 44 be b6 c6 86 3d 0d 21 08 be
       0.051097076 -0.19163235 0.0658087 -0.13293858
0002f0 8f fc a6 bd c9 dc 85 bd 32 ff bd bd 1f c0 c0 bd
       -0.081536405 -0.06536252 -0.0927719 -0.09411644
000300 24 f3 7e 3e ea f3 bd bb 5a a0 6c 3e 91 2d 76 3e
       0.24897438 -0.005796899 0.23108044 0.2404082
000310 d0 2b 97 bd ee 23 f9 bd b9 c8 46 3e 71 96 8f 3e
       -0.073814034 -0.12165056 0.19412507 0.28044465
000320 17 c5 8f bd e1 78 46 bd fd 32 04 be 9c a0 53 be
       -0.07020014 -0.048455123 -0.12910075 -0.20666736
000330 22 20 a9 3c 3a 47 98 3d 27 ac 70 3d b3 a6 56 3d
       0.020645205 0.074354604 0.058757927 0.05240507
000340 22 dc 87 3e 6e bb b2 bc e9 90 62 be bc 5f f9 bc
       0.26535136 -0.021817889 -0.22125591 -0.030441158
000350 d3 f3 9a 3d 5e 15 c6 3d 53 81 45 be bb c5 41 3d
       0.07566037 0.09672044 -0.19287615 0.04730771
000360 6f da 84 be 17 a4 1e be 2a 6f 27 be 6d cf 95 3e
       -0.25947902 -0.15492283 -0.16351 0.29259816
000370 f3 d2 3f 3e 19 01 60 3e fb f6 34 3e 16 eb c7 3d
       0.18732814 0.21875419 0.1767234 0.09761636
000380 31 5d 1e be bc 15 44 be 06 e9 10 3e b1 74 4e be
       -0.15465237 -0.19148916 0.14151391 -0.20161702
000390 53 86 80 be d0 c8 0f be b1 2c ea 3b 70 2a fc 3c
       -0.2510248 -0.14041448 0.007146441 0.030781955
0003a0 68 e0 5b be b2 94 1d be 08 57 a1 bd c9 a6 36 be
       -0.21472323 -0.15388754 -0.07877928 -0.17837061
0003b0 39 26 53 be 88 f3 86 3d 34 4d 20 be a2 63 b8 3d
       -0.2062005 0.06589419 -0.1565445 0.090033785
0003c0 57 6b 35 3e 30 7d 36 3d e3 4e 93 3d 5c bb 78 bd
       0.17716728 0.04455298 0.07192781 -0.060725555
0003d0 c1 25 ac bd 1d 65 19 be 03 09 b5 bd c7 30 9e bc
       -0.084056385 -0.14979978 -0.088396095 -0.019310368
0003e0 f4 7f 25 3e 3c 7a 2b be 45 c4 55 be 9d 9e f8 bd
       0.16162091 -0.16745847 -0.20875652 -0.12139628
0003f0 cc 41 4f be 44 2e 14 bd 51 34 a4 3c cc db 90 3d
       -0.20239943 -0.036176935 0.020044478 0.07073173

models.M_2.adaptive_layer_3.linear.bias f4 [32]
000000 b8 46 ca 3b 44 17 fe bb ee 3f 1c 3a 73 97 0e bd
       0.006172981 -0.0077542383 0.0005960454 -0.034812402
000010 75 4f 61 bc 9a df 6c bc e4 ee 8d bc 72 f2 88 3a
       -0.013751854 -0.014457608 -0.017325826 0.0010448231
000020 a2 e2 83 bc 21 78 91 bb 66 5d 91 bc a1 87 79 bc
       -0.016099278 -0.0044393693 -0.017744731 -0.01523009
000030 b7 e2 b9 39 83 38 78 bb 9a 2f 2a bc db 29 21 bc
       0.00035454865 -0.003787548 -0.010387326 -0.009836639
000040 06 76 a2 bc 6a 3c 06 bc 5d 8e da bc 53 4d a7 bb
       -0.019831669 -0.008193115 -0.026679212 -0.0051056533
000050 00 5d d6 bb 07 58 a0 bb 6c 40 4e bc 66 20 d6 bc
       -0.006541848 -0.004893306 -0.012588602 -0.026138496
000060 19 6e 23 bc 43 cd 63 bc 5b bf 02 bd e7 05 c1 bb
       -0.00997498 -0.013903919 -0.031920772 -0.005890596
000070 90 27 e7 bb 51 2b 09 bb 49 47 f4 bb be 25 2d 3c
       -0.0070542768 -0.002093036 -0.007454787 0.0105680805

models.M_2.bn3.weight f4 [32]
000000 6d fe 63 3f 90 d8 5e 3f dd f4 6a 3f 67 0b 3a 3f
       0.890601 0.870492 0.9177988 0.7267365
000010 6b 79 6a 3f 2e f2 6f 3f b3 8d 5e 3f be 16 5f 3f
       0.9159152 0.9372891 0.86934966 0.87144077
000020 6b 6f 5b 3f 1e de 79 3f c4 6d 70 3f 98 40 37 3f
       0.85716885 0.9760455 0.9391749 0.7158294
000030 74 a9 6a 3f 96 2d 57 3f 87 90 64 3f 24 53 5d 3f
       0.91664815 0.84053934 0.8928303 0.8645499
000040 5c 99 3c 3f 6b 45 55 3f 3e b6 53 3f 92 ca 65 3f
       0.7367151 0.8330905 0.82699955 0.8976222
000050 59 64 64 3f c8 ee 64 3f 11 05 83 3f e3 c2 80 3f
       0.8921562 0.8942685 1.0235921 1.0059475
000060 76 35 5f 3f e2 3b 4f 3f 26 35 66 3f 0c d8 76 3f
       0.8719095 0.8095075 0.8992485 0.9642341
000070 ec 21 71 3f 55 14 42 3f 8c ac 37 3f 28 75 57 3f
       0.94192386 0.75812274 0.7174766 0.8416314

models.M_2.bn3.bias f4 [32]
000000 51 1b fa bd 7f 61 bf 3d ce 5b 14 be 48 03 17 be
       -0.122122414 0.09344768 -0.14488146 -0.14747345
000010 e6 3a 64 3d b8 74 39 be d4 2f 88 3d b6 ba 0e be
       0.055720232 -0.18110931 0.066497475 -0.13938412
000020 7c 2d 6c 3d 64 a1 51 be 0f 8f 58 bc 78 98 33 be
       0.057660565 -0.20471722 -0.013217702 -0.17538631
000030 a6 f3 2d be 31 8d da 3d 41 65 b2 3d ff 98 f0 3c
       -0.16987476 0.106714614 0.08710719 0.02936983
000040 f1 f8 fb bd f3 97 a8 bd cd e2 09 3d af 69 67 3d
       -0.12303341 -0.08232107 0.03366356 0.056497272
000050 1a 4c d1 3d 21 4f 8e 3d 05 d9 dc bd 48 51 fc 3c
       0.10219593 0.069486864 -0.10783581 0.030800477
000060 df 6e 9a 3d 07 1b d3 bd c3 dc c5 3c e5 40 01 3e
       0.07540678 -0.103078894 0.024153119 0.12622412
000070 b9 bb f9 3b 5d 66 f3 bd 22 e2 e4 bd cd 36 03 be
       0.0076212552 -0.118847586 -0.11175944 -0.12813874

models.M_2.bn3.running_mean f4 [32]
000000 7c 13 68 3e c2 08 9a bd 8f 47 50 bd 24 b5 ab be
       0.22663683 -0.07521202 -0.050849494 -0.33536637
000010 38 ed 1f be 0e e1 1b be d4 7e a2 be f4 16 0e 3d
       -0.15617836 -0.1522257 -0.31737387 0.03468986
000020 a7 2a a5 be a2 6e 23 be a3 9a b9 be 75 fa 53 be
       -0.32259104 -0.15960172 -0.3625079 -0.2070101
000030 2d 08 2f 3e 21 c4 25 3e 44 07 0f bf 1b 28 19 be
       0.17092963 0.16188098 -0.5587046 -0.14956705
000040 a3 06 95 be 4e 10 9f 3e e6 c3 49 be d4 e6 bd be
       -0.29106626 0.31067127 -0.19703636 -0.3709017
000050 f8 b2 f0 be 36 d2 e1 be 68 e5 0b 3d 4f 14 35 bf
       -0.47011542 -0.4410569 0.034154326 -0.70734113
000060 c0 44 24 bf 07 97 2e be bd 51 be be b3 dc 47 be
       -0.64167404 -0.170498 -0.37171736 -0.19517784
000070 a0 65 9d be 3c 41 85 bc 94 28 8c 3e 01 b0 8a 3e
       -0.30741596 -0.016266458 0.2737471 0.27087405

models.M_2.bn3.running_var f4 [32]
000000 89 ac 9a 3d 00 96 5d 3d 35 f9 01 3e 04 d1 ca 3d
       0.0755244 0.05409813 0.12692721 0.09903148
000010 ed c9 92 3d 0d ce ae 3d f6 81 0d 3e 98 53 fe 3d
       0.071674205 0.08535395 0.13819107 0.12418288
000020 68 8c 0c 3e a8 24 c2 3d da 21 f1 3d 2a 1f 89 3d
       0.13725436 0.09479648 0.11774035 0.06695397
000030 51 13 0a 3e 0e 97 90 3d 38 b5 59 3e c2 f3 0b 3e
       0.13483931 0.070600614 0.21260536 0.13667205
000040 e2 ed 13 3e 51 60 c0 3d f0 38 d3 3d b5 4c 86 3d
       0.14446214 0.09393371 0.10313594 0.065575995
000050 b9 1b 06 3e dd 83 81 3d d7 c4 c4 3d 53 8c ff 3d
       0.13096513 0.06323979 0.09607857 0.124779366
000060 e3 c0 9f 3d 0c 4d 8d 3d e2 05 7d 3e dd 54 b3 3d
       0.07800462 0.06899461 0.24709275 0.08756421
000070 55 ae d3 3d 11 f3 0e 3d 64 a0 f1 3d 72 b8 f5 3d
       0.103359856 0.034899775 0.1179817 0.11998071

models.M_2.fc_out.weight f4 [1, 32]
000000 03 bf 61 bd 9f 74 d1 3d eb 60 57 bd 2e e9 c4 bb
       -0.055113804 0.10227322 -0.052582663 -0.0060092425
000010 55 09 0a 3d 6d 24 5b bc 3a c4 a4 3d a9 9a 6d bc
       0.033700306 -0.013375384 0.0804524 -0.014502206
000020 40 10 4a 3d 5e c1 21 bc 8a d1 c6 3d 6a a4 47 bb
       0.049331903 -0.0098727625 0.09707935 -0.0030462989
000030 17 66 8a bc 0b ce 39 3d 1f 45 58 3d 62 03 9a 3d
       -0.016894383 0.045362514 0.052800294 0.075201765
000040 74 8b 95 bb f9 88 89 3c 68 f0 7a 3d 47 50 2f 3d
       -0.0045637432 0.016788946 0.061264426 0.042801168
000050 41 1c aa 3d e3 3c ab 3d c6 33 db bc 1f 27 86 3d
       0.0830617 0.083612226 -0.026758086 0.065504305
000060 78 4e b1 3d 1c d7 b7 3b 4e 2a b6 3d 33 50 f5 3d
       0.08657545 0.00561036 0.08894788 0.119781874
000070 c2 67 c8 3d af 84 60 3c 17 8f 86 3c 58 6b a8 bb
       0.09785415 0.013703509 0.016425652 -0.0051397495

models.M_3.adaptive_layer_1.gate f4 [4]
000000 22 39 a6 b9 b0 59 3f 3c ba 26 b9 3c 6f db 00 3c
       -0.00031704555 0.011679098 0.022601474 0.007864817

models.M_3.adaptive_layer_1.linear.weight f4 [4, 2]
000000 5f e1 a3 3e a6 13 dc be 55 68 a0 3e 6d 7e 92 be
       0.32007882 -0.4298374 0.313296 -0.2861208
000010 98 7e a8 3e f6 41 11 be 72 18 30 bf d0 fc b5 be
       0.32909083 -0.14185318 -0.687873 -0.35544443

models.M_3.adaptive_layer_1.linear.bias f4 [4]
000000 d4 5e 82 be 7c fa 5f 3d 3e 8e 34 be 7d 15 af bb
       -0.25462973 0.05468224 -0.17632386 -0.005343138

models.M_3.bn1.weight f4 [4]
000000 48 16 61 3f 8a 31 85 3f 6a aa 85 3f 3f 4c 55 3f
       0.87924623 1.0405743 1.0442631 0.8331947

models.M_3.bn1.bias f4 [4]
000000 1d ba d0 3c 79 5d f7 3c d5 93 40 3d 25 b9 20 be
       0.02547937 0.030195938 0.047015984 -0.15695627

models.M_3.bn1.running_mean f4 [4]
000000 d0 2e 96 bd 6a 8c f8 3d 8a 24 03 bc 0e 46 91 be
       -0.073331475 0.12136157 -0.008004317 -0.2837376

models.M_3.bn1.running_var f4 [4]
000000 77 51 fa 3b 19 fc 88 3b c1 c8 17 3b 7f 41 46 3c
       0.007639106 0.004180443 0.002316043 0.012100576

models.M_3.adaptive_layer_2.gate f4 [8]
000000 21 84 32 bd 0c 3b 4a bc c4 20 23 bc be 83 92 39
       -0.04358304 -0.012343179 -0.009956542 0.00027945446
000010 e2 71 24 3c 0e f1 a3 bb 14 60 ba bc f3 d8 26 bd
       0.010036917 -0.005003101 -0.022750892 -0.040734243

models.M_3.adaptive_layer_2.linear.weight f4 [8, 4]
000000 55 e3 d8 3d 75 c1 9e be e7 8e 9e 3d 40 de e4 be
       0.10590235 -0.3100697 0.077421 -0.44700813
000010 05 56 8e be 5b eb a7 be 19 d3 85 be 30 73 e1 bd
       -0.27800003 -0.3279675 -0.26137617 -0.110082984
000020 63 00 0a 3e 7f bb b1 bc 9c 33 a4 3e 51 7e ca 3e
       0.1347671 -0.02169585 0.32070625 0.39549497
000030 a4 1f 79 3e 55 65 ff bd a7 c6 c8 be 78 83 78 3e
       0.24328476 -0.124704994 -0.3921406 0.24268901
000040 45 58 81 be f0 00 5e 3e ce 6e bb 3e 07 ab 30 3e
       -0.25262657 0.21680045 0.36607975 0.17252742
000050 94 50 18 3f 89 9e bd 3e f3 49 e9 bd 06 84 3c be
       0.5949795 0.37035015 -0.11391058 -0.18409738
000060 e0 40 bf 3e ef 72 a4 be 84 a1 a5 be 7e 17 a5 3e
       0.37354183 -0.32118937 -0.3234979 0.32244486
000070 f4 53 84 3e 5f 03 49 3c 71 63 8f 3d 62 81 d6 be
       0.258453 0.01226887 0.07001389 -0.41895586

models.M_3.adaptive_layer_2.linear.bias f4 [8]
000000 a9 6a 17 bd 5e d1 e0 3d 78 b8 11 bc 7a 36 a4 3a
       -0.036966953 0.109774336 -0.008894078 0.0012528442
000010 99 84 24 3c 9d 4e ed bb 34 40 14 bc bd 3c 9a 39
       0.010041379 -0.0072420374 -0.00904851 0.00029418422

models.M_3.bn2.weight f4 [8]
000000 8c fd 3e 3f 69 9a 4a 3f 1f a2 84 3f 3e f6 72 3f
       0.7460563 0.7914186 1.0361975 0.94906986
000010 73 3d 63 3f a1 5f 72 3f 83 2f 92 3f 31 d3 5b 3f
       0.8876564 0.9467717 1.142075 0.8586913

models.M_3.bn2.bias f4 [8]
000000 37 c0 44 be 3c df 1e be cd c7 5b 3d bd f0 98 bd
       -0.19213949 -0.15514845 0.05365734 -0.07467792
000010 d5 69 b7 3d 98 f3 8b 3d 50 32 c9 bb 7e 42 c4 bd
       0.08955733 0.06833571 -0.006140031 -0.09582995

models.M_3.bn2.running_mean f4 [8]
000000 12 ae dc bc dc 27 8f be 03 61 82 3e 28 69 07 be
       -0.026938472 -0.27960098 0.2546464 -0.13223708
000010 e8 82 15 3e 92 4b 91 3e 37 06 57 3b bd e5 02 3e
       0.14600718 0.28377968 0.00328101 0.1278295

models.M_3.bn2.running_var f4 [8]
000000 a8 df 4e 3c e3 a2 a5 3d b6 da cd 3c 16 4d 0d 3d
       0.012626566 0.08087709 0.025128704 0.034497343
000010 4e c5 6b 3c 26 7a 95 3d f1 25 cb 3c 11 8e 21 3d
       0.014390303 0.072986886 0.024798365 0.039442126

models.M_3.adaptive_layer_3.gate f4 [16]
000000 27 62 00 3c ab 6d a3 bb c6 5f 38 bd 95 c8 16 bc
       0.007835901 -0.0049874387 -0.04501321 -0.009203096
000010 ac d9 d7 bb 23 f8 21 3c 1f 72 33 3c 27 d5 51 3c
       -0.006587228 0.009885821 0.010952502 0.012807167
000020 c8 a9 04 3c 69 e7 ce 3b 12 93 2f 3c ef ef 22 bb
       0.00809712 0.0063142073 0.010716217 -0.002486225
000030 ed b2 42 bc 63 cc a2 3b f0 bc a2 3c 9d 72 a9 3c
       -0.01188348 0.0049682125 0.019865483 0.020684535

models.M_3.adaptive_layer_3.linear.weight f4 [16, 8]
000000 6f ed 84 3e 47 32 27 3d 03 85 4b 3e f1 98 81 3e
       0.25962397 0.040819433 0.19874959 0.25311998
000010 82 78 83 3d c6 47 4b 3e 2b db 9f 3e 49 1f c8 3e
       0.064194694 0.19851598 0.312219 0.3908637
000020 fd eb b0 3e c6 5a 8c bc 5c 0b 75 be 55 64 a8 3c
       0.34555045 -0.017133128 -0.23930115 0.020555655
000030 25 d5 d0 3c b4 72 12 bd 29 0d ad bc 31 cc e2 3c
       0.02549226 -0.03575392 -0.02112444 0.027685257
000040 b9 60 fb 3d 22 2a 49 3b d9 2d 4a be 6c f9 27 be
       0.12274308 0.003069528 -0.19744052 -0.1640374
000050 69 a8 37 be 42 0d 2b be 08 c4 b4 3e 31 3a 15 3e
       -0.17935337 -0.16704276 0.3530581 0.1457298
000060 0f 0e 3f 3e bd f1 93 bd df 1c 26 3d 6f db 48 3e
       0.18657707 -0.07223842 0.040554877 0.19614957
000070 df d3 bf be 3f 9d 48 bd d1 8e 56 bd 7c 6b 8e be
       -0.37466332 -0.048978087 -0.052382294 -0.2781638
000080 a2 d0 c6 be fb a5 45 3e 6e d7 41 3e 72 c4 5c 3e
       -0.3883105 0.19301598 0.18929836 0.21559313
000090 44 37 64 3e 6b 67 29 be 89 75 e6 bd 74 0d 80 3d
       0.22286707 -0.16543357 -0.11252887 0.06252566
0000a0 d7 de ba bd 44 c7 4a 3d 1f 9f a8 be 18 4c d7 3b
       -0.091245346 0.04950644 -0.329339 0.0065703504
0000b0 00 93 6f be 2e 8e 58 bd a8 97 30 3e 4f bd ee bd
       -0.2339592 -0.052869968 0.17245352 -0.116572015
0000c0 e7 f4 99 be 6c ea 04 3e eb c0 ae be 3e 9c ab 3c
       -0.30069658 0.1298005 -0.3413156 0.020948526
0000d0 af e8 13 3e bd 6e 71 be dd 12 92 be 42 14 89 be
       0.1444423 -0.235774 -0.28530017 -0.26773268
0000e0 ed d3 e6 bd aa 53 17 bd 93 79 e2 bd 1e 25 ad bd
       -0.112708904 -0.036945023 -0.11058345 -0.08454345
0000f0 9c 39 0b 3e 0e ec 11 be b7 d2 a4 be af a3 12 be
       0.13596195 -0.14250204 -0.32192013 -0.14320253
000100 ca 14 ad be d4 b0 8b be 81 b7 9a be 36 81 30 3e
       -0.33804923 -0.27283347 -0.30218127 0.1723679
000110 d8 91 73 be ae db 82 be 14 b2 a4 be 75 5e 1f 3e
       -0.23786104 -0.25558227 -0.32167113 0.15563376
000120 8f 7c 1f be 1e 91 d1 bd 36 a3 a4 3e 93 8c ef bd
       -0.15574859 -0.10232757 0.3215577 -0.11696734
000130 2f 66 8c 3e 73 60 97 be 8c ff 7f be 69 a6 ca bd
       0.2742171 -0.29565772 -0.24999827 -0.098950215
000140 6c 4f 4a 3e aa 52 31 3d 48 84 b6 be c1 6b a2 3c
       0.1975686 0.043291725 -0.35647798 0.019826772
000150 20 8a 8c be 55 96 28 be b1 66 29 be 69 4d 40 3e
       -0.2744913 -0.16463597 -0.1654308 0.1877953
000160 aa 77 0a 3e 4d da 2c 3e ab 77 84 3d cb 75 4d be
       0.1352221 0.1688015 0.06468137 -0.20064466
000170 b1 b3 a6 3d 79 22 2e 3d a6 86 c0 3d 8b 96 48 be
       0.08139742 0.042513344 0.09400682 -0.19588678
000180 c0 b4 4c 3e fd 44 12 be 33 d9 53 be a9 ea 48 3e
       0.19990826 -0.1428413 -0.20688324 0.19620766
000190 07 5f 39 3e ec 26 5f 3e 2e 85 81 bd 62 05 78 be
       0.18102656 0.21792191 -0.0632423 -0.24220803
0001a0 00 2f 3b 3d ef 2a 5b 3e 40 4d 01 bf 49 bd 0b 3c
       0.04569912 0.21403097 -0.505085 0.008529016
0001b0 5d e3 a9 be fc 77 dc bc c0 df 02 3e 09 9c 3d be
       -0.33181277 -0.026912682 0.12780666 -0.18516554
0001c0 11 cc 9c bd 37 04 aa 3d 58 25 a0 bd b2 bc e4 be
       -0.0765611 0.08301585 -0.07819623 -0.44675213
0001d0 68 96 80 3e 88 89 04 be 23 93 92 bd 44 58 82 3c
       0.2511475 -0.12943089 -0.0715697 0.015911229
0001e0 7a 14 d5 bd 69 18 32 be 64 b3 9a 3d ae 0f 53 be
       -0.10404296 -0.17392124 0.07553747 -0.2061145
0001f0 fa aa 67 be 26 74 e1 bd 70 82 80 be a8 46 8c be
       -0.22623816 -0.11008482 -0.25099516 -0.27397656

models.M_3.adaptive_layer_3.linear.bias f4 [16]
000000 b5 bf c1 3b 35 3c 52 3b cf 92 27 bc 36 56 b6 bc
       0.005912746 0.0032079343 -0.010227873 -0.022257905
000010 3e 29 46 bc a0 52 ed bc 6b e0 8e bc c3 01 2d bc
       -0.012094794 -0.028970063 -0.017440995 -0.010559502
000020 f0 15 02 bc 8c 21 9c bb b9 a5 5c bc 7b 05 d4 3b
       -0.007939801 -0.0047647413 -0.013467246 0.00647038
000030 8c b3 1e bc bb 8d ca bb 5e cd a3 bd 7a dc 6f bc
       -0.009686362 -0.0061814464 -0.07998155 -0.014639968

models.M_3.bn3.weight f4 [16]
000000 53 3d 59 3f 30 ae 65 3f 9c 96 5a 3f 72 39 60 3f
       0.848592 0.89718914 0.8538606 0.87587655
000010 47 ea 80 3f 5a 5c 64 3f e1 75 73 3f cf bf 59 3f
       1.0071496 0.8920342 0.95101744 0.850583
000020 1f f5 7e 3f a4 38 6b 3f 5d 4c 79 3f 1d 3e 81 3f
       0.99592775 0.918833 0.97382146 1.009708
000030 0f 70 6e 3f 75 03 6f 3f 8c 5e 71 3f ef 59 40 3f
       0.9313974 0.9336465 0.9428489 0.7513723

models.M_3.bn3.bias f4 [16]
000000 e3 d0 45 be ff 82 19 be 0b cb 36 3b 0c 62 cc bb
       -0.19317965 -0.14991377 0.002789202 -0.006237274
000010 70 c2 6c 3d 9e e7 19 be 4c 32 1a 3d 12 61 56 be
       0.057802618 -0.15029761 0.037645623 -0.20935467
000020 88 52 50 3d 76 81 35 be bd ae 9b bd 42 b4 53 be
       0.050859958 -0.17725167 -0.07601688 -0.20674232
000030 0c c1 9c 3c e9 18 3e 3d d2 26 8b 3d b1 25 64 be
       0.01913502 0.046410475 0.06794514 -0.22280003

models.M_3.bn3.running_mean f4 [16]
000000 a1 6a 24 3f 8f a6 1b bd 33 97 ed bc 30 80 cf bd
       0.642252 -0.03800064 -0.029002761 -0.10131872
000010 0c 52 fe 3d b4 66 a4 be 09 0f e6 be 7b fd a7 be
       0.12417993 -0.32109606 -0.44933346 -0.32810578
000020 8a ee 34 bf 73 79 b0 3a 13 67 a8 be a0 63 23 3e
       -0.7067648 0.0013463929 -0.3289114 0.15955973
000030 8b bc 5c 3e 2f f3 ca be ca c4 d9 bd 67 c6 a4 be
       0.21556298 -0.3963866 -0.10633238 -0.3218262

models.M_3.bn3.running_var f4 [16]
000000 a7 64 3a 3e 43 13 91 3c 12 44 61 3d 2d 79 8b 3d
       0.18202458 0.01770938 0.054996558 0.06810222
000010 89 14 12 3d 6b 37 5e 3e 8c 97 25 3e bf 80 46 3d
       0.035664115 0.21700828 0.16171092 0.048462626
000020 2e 42 a2 3e ed de 8b 3d 29 a3 ea 3d 83 16 3f 3d
       0.31691116 0.06829629 0.114569016 0.04665233
000030 2a 38 2b 3d 93 bf b2 3e e6 08 78 3d 55 8a 19 3d
       0.04180161 0.34911785 0.06055536 0.03748544

models.M_3.fc_out.weight f4 [1, 16]
000000 23 b8 82 bd 4b f9 8a bd 72 02 23 3e 1a b9 36 3d
       -0.063827775 -0.0678583 0.15918902 0.04461012
000010 f6 1c 06 3d 70 c1 04 3b 37 e9 45 3d 67 12 96 bc
       0.032742463 0.00202569 0.048318114 -0.018319322
000020 90 7f 19 3e b0 ee 16 bd 01 97 d7 3c 67 23 b4 bc
       0.14990067 -0.036848724 0.026317121 -0.021989537
000030 d9 02 08 3d 3c ec 62 3e cd a7 06 3e 19 34 04 bc
       0.03320584 0.22160429 0.13149948 -0.008069062

models.M_4.adaptive_layer_1.gate f4 [8]
000000 5d 71 6a bc 9c f6 1c bd 21 4a 44 bc cd 60 22 3c
       -0.0143092545 -0.038321123 -0.011980564 0.009910774
000010 51 e4 07 bd 0a 18 e4 3a 6d 2d 29 bd da 6b 0d 3c
       -0.033176724 0.0017402184 -0.041303087 0.008631671

models.M_4.adaptive_layer_1.linear.weight f4 [8, 4]
000000 02 3e be 3c 03 7b 81 be 2a bb ee 3e 4f 2b bb bc
       0.023222927 -0.25289163 0.4662717 -0.0228478
000010 87 00 a3 3d 04 5f ae bd 7a 93 f6 bd 5d 00 be 3d
       0.07959085 -0.085142165 -0.12039848 0.09277413
000020 15 ca e4 3d 6a f7 12 39 27 fd 48 bd 1e dc e2 3e
       0.111713566 0.00014015814 -0.04906955 0.4430856
000030 db ef 33 bd 82 43 ad be c0 0c 8f bd 41 b2 cd 3e
       -0.043929916 -0.33840567 -0.06984854 0.4017506
000040 60 82 28 3d b4 c5 3e 3d 54 e4 44 be b8 3d 17 3c
       0.04113996 0.046575263 -0.19227725 0.0092310235
000050 a6 f9 d4 be 98 a6 ce be 8a 04 8d 3e c5 54 d9 3e
       -0.41596717 -0.40361476 0.27542526 0.42447487
000060 85 58 f1 3e c0 f4 99 be e0 7e 3c 3e c5 07 11 be
       0.47137848 -0.30069542 0.18407774 -0.1416312
000070 89 10 2d 3e 56 aa 93 3e e9 83 bd 3e 48 9f 62 3e
       0.16900839 0.28840894 0.37014702 0.22131073

models.M_4.adaptive_layer_1.linear.bias f4 [8]
000000 5c a0 04 3c 37 e5 22 3c 3b fc b5 bb 9d 89 ec bb
       0.008094873 0.009942344 -0.00555375 -0.007218553
000010 f2 c6 79 38 36 74 c1 ba 08 44 8b 3b e1 50 d9 bd
       5.955151e-05 -0.0014759365 0.0042500533 -0.106111296

models.M_4.bn1.weight f4 [8]
000000 6b 32 75 3f dc 8d 48 3f c6 51 7b 3f 1d 94 71 3f
       0.95780057 0.7834146 0.9817165 0.9436663
000010 a2 7d 53 3f bf cb 68 3f a1 94 59 3f dd 47 73 3f
       0.82613575 0.9093589 0.84992415 0.9503153

models.M_4.bn1.bias f4 [8]
000000 5f 44 40 bc c6 de e7 bd 62 fc 2c bc 14 39 1e 3d
       -0.011735051 -0.113217875 -0.01055822 0.038628653
000010 b0 75 b1 bd 2c 05 f7 bd fe ae c4 bc 0c c1 8e 3d
       -0.08665025 -0.12061533 -0.024009224 0.069704145

models.M_4.bn1.running_mean f4 [8]
000000 4b 74 54 bd 10 4e 51 bd 6a 98 85 3d 71 c7 1e be
       -0.051868718 -0.051099837 0.06523211 -0.15505768
000010 dc 21 87 bc 19 39 7f be b9 1f 07 3d ea 63 2e 3e
       -0.016495638 -0.24924125 0.032989237 0.17030302

models.M_4.bn1.running_var f4 [8]
000000 0e 1d 2d 3c 1b 23 14 3b b8 03 9f 3b 29 df 99 3b
       0.010566009 0.0022603932 0.004852738 0.004695792
000010 03 07 62 3b bb c3 16 3c 58 11 de 3b 21 54 eb 3b
       0.0034489043 0.009201939 0.00677697 0.00718166

models.M_4.adaptive_layer_2.gate f4 [16]
000000 fe 9f b2 3c ff 82 ea bb a6 47 f8 bc 4a d5 df 37
       0.021804806 -0.007156729 -0.030307602 2.6682992e-05
000010 48 5b 97 3b 62 9f df bc d2 6e b2 3b 19 5c e5 3c
       0.004619036 -0.02729768 0.0054453397 0.027998017
000020 16 31 ec 3c 25 61 80 bb 70 8c 10 3c 2f a3 ce 3b
       0.028832 -0.0039178305 0.008822545 0.006306074
000030 77 60 ba bc 7e bf f6 3b 0b f5 d8 bc 35 23 0d bc
       -0.022751076 0.007530152 -0.026484033 -0.008614351

models.M_4.adaptive_layer_2.linear.weight f4 [16, 8]
000000 75 0b dd bd a1 6c 46 be a2 71 13 bd 48 f7 0a be
       -0.10793201 -0.19377376 -0.03599704 -0.13570893
000010 0d b7 a1 be 63 cd ab bc 76 a8 8d 3d 41 50 13 3e
       -0.3158497 -0.02097196 0.06916897 0.14386083
000020 df 08 d8 3d 78 76 42 be 60 0f c6 be 61 c0 ad bb
       0.10548567 -0.18990505 -0.38683605 -0.0053024744
000030 2e cf 1f 3e a7 af 58 be 33 9b 42 3c 18 0f 17 3e
       0.15606377 -0.21160756 0.011877823 0.14751852
000040 2b f5 96 bc 14 c1 0f be d6 64 69 3e 1f 52 a3 3d
       -0.018427452 -0.14038497 0.22792372 0.07974648
000050 71 fe 32 bc f4 5c 58 bd 1c 0f 56 3e 45 20 0c be
       -0.010924921 -0.052823022 0.20904201 -0.13684185
000060 ae 30 89 3e 49 21 3a be 31 46 9b 3d 1b 1b 5c bc
       0.26794952 -0.1817676 0.07581747 -0.013434197
000070 92 35 70 bd 73 82 03 bd ac 12 00 3e 68 36 09 be
       -0.05864484 -0.032106828 0.12507123 -0.1339966
000080 d0 2a a3 be e0 25 a8 bd 5b 88 82 3e 47 79 03 bc
       -0.318686 -0.08210349 0.25494656 -0.00802452
000090 6b 5b f3 3c 8c 8f 48 bc 75 b7 5b 3e 0e 06 3e 3e
       0.029706677 -0.0122412555 0.21456702 0.18556997
0000a0 2c a5 03 3e ba b8 77 be a3 ec 29 be 8b e1 17 3c
       0.12855977 -0.24191561 -0.16594176 0.009270082
0000b0 b0 60 6b be 1b 76 24 3e ef 1c 29 be 8a 81 08 3e
       -0.22986102 0.16060679 -0.16514944 0.13330665
0000c0 69 f2 8a 3e 94 dd 9e 3d ab 8b 9d 3d ad 07 4c be
       0.2713807 0.077571064 0.07692655 -0.19924803
0000d0 ee f3 68 3e 9a 3b e6 bc ad 1f 91 be 3a b0 ab 3e
       0.22749302 -0.028104592 -0.2834448 0.33532888
0000e0 12 6b 87 be db f7 b7 bc c5 7a 83 3e f2 5f 2f be
       -0.26448876 -0.022457054 0.25679603 -0.17126444
0000f0 90 2e 6c be cc 9d cd bd 80 05 f7 bd 89 f1 d0 bd
       -0.23064637 -0.10039863 -0.12061596 -0.10202319
000100 b7 0b 73 be d0 99 9b bd 11 2b 9e bd 80 d3 07 be
       -0.23734938 -0.07597697 -0.07723058 -0.13264275
000110 b0 84 ad be 0c 21 01 3e 5f e1 b5 3d fb 33 3f be
       -0.33890295 0.12610263 0.08880877 -0.18672173
000120 7c 39 aa 3e 3a 52 aa bd 20 43 da 3d 99 ab bf bd
       0.33246982 -0.08316465 0.10657334 -0.093589015
000130 9b db b8 bc 1b 8f 94 3e b0 ec 44 3e a3 f5 db bd
       -0.022565654 0.2901543 0.19230914 -0.10740211
000140 e0 c4 5c 3e 29 44 3b bb 3a 20 0c 3e 99 d9 5a 3e
       0.21559477 -0.0028574562 0.13684168 0.2137207
000150 96 4c 65 3e 0c f3 37 be db 3b 55 3e 0e 0e b8 bd
       0.22392496 -0.17963809 0.20823614 -0.08987056
000160 82 10 f4 bb d4 44 55 be ad 18 6d bd 38 d3 59 bb
       -0.007448257 -0.20827037 -0.05788486 -0.0033237468
000170 74 40 26 be e2 40 27 bd 91 b6 a8 bc ee 86 8d 3e
       -0.16235524 -0.04083336 -0.020594867 0.27642006
000180 aa a2 65 3e c5 f7 b4 3d 87 0d 08 3e 00 13 6c 3e
       0.22425333 0.08836321 0.1328641 0.23054123
000190 80 79 7f bd 24 f1 65 ba d6 f1 c6 3d b1 19 30 be
       -0.06237173 -0.00087715895 0.09714095 -0.171973
0001a0 c2 87 a3 be e1 46 4e 3d 23 ea bc bd a3 8f 8f 3c
       -0.31939512 0.050360564 -0.092243455 0.017524546
0001b0 36 40 04 bb eb ad 2c 3d 58 1d 1a 3e 95 60 15 be
       -0.0020179874 0.04215805 0.15050256 -0.14587624
0001c0 06 56 94 3e 0c 89 3b 3e 3c 0d 38 be 9c e9 50 be
       0.2897188 0.18313998 -0.17973799 -0.20401615
0001d0 f8 61 4f be c7 63 41 be 43 11 c1 bd 99 e7 25 3d
       -0.20252216 -0.18885718 -0.094271205 0.04050407
0001e0 56 c1 c4 bc d7 c8 65 be bf f8 37 be 17 db 36 be
       -0.024017971 -0.22439896 -0.17965983 -0.17857014
0001f0 ad 78 4f 3e c0 db e8 bd e7 98 14 be 73 78 57 3e
       0.20260878 -0.11370039 -0.14511453 0.21042041

models.M_4.adaptive_layer_2.linear.bias f4 [16]
000000 f5 27 8b bc 2b 0e 39 bc bf f4 ab bc df 02 d7 bb
       -0.016986826 -0.011294882 -0.020990727 -0.0065616216
000010 08 51 f1 bb 71 3e bc bb b6 70 9b 3b ab 97 00 bd
       -0.007364396 -0.0057447483 0.004743661 -0.03139464
000020 5c 65 21 bd e5 f4 0b 3c 09 90 03 3c d2 44 2a bc
       -0.039403304 0.008542274 0.008029946 -0.010392385
000030 12 a4 51 bc 78 10 02 3c 7b cd 1a 3c bb 8d 28 3c
       -0.012795465 0.007938497 0.009448404 0.010287697

models.M_4.bn2.weight f4 [16]
000000 36 c8 31 3f 6f 14 34 3f 0c 01 3a 3f d5 d2 5e 3f
       0.6944612 0.7034368 0.7265785 0.87040454
000010 dd 57 5d 3f 7b e0 45 3f 09 bf 54 3f 35 46 52 3f
       0.86462194 0.77295655 0.83103997 0.8213838
000020 d5 98 32 3f f0 05 7e 3f 97 4a 42 3f 57 6b 6c 3f
       0.69764453 0.9922781 0.75895065 0.9235129
000030 6e cf 75 3f 2b d4 6f 3f 25 76 60 3f b7 b7 48 3f
       0.9601964 0.9368312 0.87680274 0.78405327

models.M_4.bn2.bias f4 [16]
000000 d0 1f 62 bd 4b f4 af bc b1 28 4d bc 04 41 5b bc
       -0.05520612 -0.021478793 -0.012521909 -0.0133822
000010 b0 04 b2 bd 70 79 11 be 44 b0 a3 3c ea 0f e6 bd
       -0.086923 -0.14206481 0.019981511 -0.11233504
000020 bd 0a 0e be 70 6f b5 bd 72 89 ea bb 8f 23 3a bc
       -0.13871284 -0.08859146 -0.007157498 -0.011361017
000030 18 9e b2 bd 39 71 83 3c 0f d2 f6 3c 4f 67 59 bd
       -0.0872156 0.0160452 0.03012946 -0.05307704

models.M_4.bn2.running_mean f4 [16]
000000 c8 c5 6f be d5 e1 90 bd e7 16 fd 3c f6 d4 49 3d
       -0.23415291 -0.07074324 0.03089471 0.04927536
000010 90 95 69 3b 94 26 bb bd 01 15 50 3e 36 a3 51 be
       0.0035642125 -0.091382176 0.20320512 -0.20472416
000020 d1 3c 52 be 4c ad 6e 3e dc 64 54 3e 59 11 9e bd
       -0.20531012 0.23308295 0.207416 -0.077181526
000030 0c be 3f 3e 0e 3b ea bd 1f be b0 bd e6 3a 32 be
       0.18724841 -0.11437045 -0.08630013 -0.1740528

models.M_4.bn2.running_var f4 [16]
000000 4b fb 62 3d 4a b9 94 3d 54 ab e2 3c e0 67 63 3d
       0.055415433 0.072619036 0.027669586 0.055518985
000010 b0 ce b0 3c 45 99 56 3d ad de d3 3c e8 03 c3 3c
       0.021582931 0.052392263 0.025863016 0.023805574
000020 c0 55 27 3d c1 b0 03 3e 6a d1 33 3d 3b 75 27 3d
       0.040853262 0.12860395 0.043900885 0.040883284
000030 34 45 7f 3d db 65 e6 3c e7 a5 9a 3d 63 73 89 3d
       0.062321857 0.02812474 0.075511746 0.067114614

models.M_4.adaptive_layer_3.gate f4 [32]
000000 fd 67 78 bc ad e2 69 bb 57 9c ca 3b 00 4d b0 bc
       -0.0151615115 -0.0035688088 0.006183188 -0.021521091
000010 1d 1a e5 bc 53 ec 05 bd 01 67 0e 3c 46 62 7e 3c
       -0.027966553 -0.03269608 0.00869155 0.01552636
000020 43 94 61 bc e0 a1 cf bc bb 10 91 bc 8c 61 36 ba
       -0.0137682585 -0.025345743 -0.017708173 -0.00069572846
000030 57 27 97 3a e3 b6 82 bc d7 ed db bc ec a8 5d bc
       0.001153211 -0.015956348 -0.02684681 -0.013529044
000040 7d 47 dc 3a 74 b2 3c bc d0 4d 34 bc 26 4a 63 3c
       0.0016805973 -0.011517156 -0.01100488 0.013872659
000050 12 7c 9c 3c 56 5b 2a bd 54 48 d9 bc 48 1b 89 3c
       0.01910213 -0.04159101 -0.026523747 0.016736642
000060 49 42 3b bc a2 1f 02 bc aa 4d b5 bc ec 35 99 bb
       -0.011429378 -0.007942112 -0.02213176 -0.0046756174
000070 ac 1a 3d bc 90 64 1d bc a3 a2 07 bc 22 89 9a 3b
       -0.011542004 -0.0096064955 -0.008278522 0.0047160545
