outputs/gene_cell_matrix_time1-GGSL_V3-Flux-20250307145512/model_training_log/best-model-epoch=000-val_total_loss=0.301.ckpt (torch, 896975 bytes, 1566 tensors)

models.M_1.adaptive_layer_1.gate f4 [2]
00000000: bd88 8cbc a97d a03c
-0.017155046 0.01959117

models.M_1.adaptive_layer_1.linear.weight f4 [2, 1]
00000000: f78d 133f e89f 233f
0.57638496 0.6391587

models.M_1.adaptive_layer_1.linear.bias f4 [2]
00000000: fc67 403a 0df6 233f
0.00073397136 0.6404732

models.M_1.bn1.weight f4 [2]
00000000: cf98 793f 037f 7f3f
0.9749879 0.9980318

models.M_1.bn1.bias f4 [2]
00000000: c459 503d 56c0 abbd
0.050866857 -0.083862945

models.M_1.bn1.running_mean f4 [2]
00000000: 8aa1 203e 8d48 073f
0.15686622 0.5284508

models.M_1.bn1.running_var f4 [2]
00000000: 5dad 743c 9a6e 963c
0.014933911 0.018363286

models.M_1.adaptive_layer_2.gate f4 [4]
00000000: 7ba4 e73d a85a 0dbc 1ee6 463c 691f 243b
0.11310669 -0.008627571 0.012139825 0.0025043136

models.M_1.adaptive_layer_2.linear.weight f4 [4, 2]
00000000: 4756 47be 35b3 023e daba 70be 0823 f53e
00000010: fead 113f 35d9 12bf 6160 bb3e 81c7 f23b
-0.19466506 0.12763675 -0.23508778 0.4787829 0.56906116 -0.5736268 0.3659697 0.0074090366

models.M_1.adaptive_layer_2.linear.bias f4 [4]
00000000: c4da 563e 9b7a b8ba b9c8 3d3d fd7c 293c
0.2098189 -0.0014074625 0.046334002 0.010344741

models.M_1.bn2.weight f4 [4]
00000000: 7630 9c3f 61d4 4a3f 6b6a 6d3f 79e9 3a3f
1.2202289 0.79230314 0.92740506 0.730125

models.M_1.bn2.bias f4 [4]
00000000: 33d0 2e3e ee92 c0bd 7c39 963d 510d 16be
0.17071609 -0.094030246 0.07335183 -0.14653517

models.M_1.bn2.running_mean f4 [4]
00000000: e341 c43d 0efd bd3d 4133 7d3d 61c5 503e
0.095828794 0.09276782 0.061816458 0.20387794

models.M_1.bn2.running_var f4 [4]
00000000: 79d0 463b 4c6c 103c 7ed2 cb3a e219 073d
0.0030336662 0.0088148825 0.0015550402 0.03298367

models.M_1.adaptive_layer_3.gate f4 [8]
00000000: 35b0 29bc 744f 0e3c a5d8 903b e38a a93b
00000010: 6e37 65bb 5efe bb3a 4e0e c1bb c6a3 2e3c
-0.010356952 0.008685935 0.0044203573 0.0051740273 -0.0034975666 0.0014342775 -0.005891598 0.010659164

models.M_1.adaptive_layer_3.linear.weight f4 [8, 4]
00000000: 9a74 043f 2fa5 2cbd 7ce2 5bbe e585 a7bc
00000010: 370e c6be 84b4 39be 632a b1be abc9 363e
00000020: e3fd 02bf 7ea1 1fbe e492 c7be 50a7 91be
00000030: 583b a73d f03a d9be bd94 123f ed4a afbe
00000040: a499 003f 5d6d 22bd 1838 85be e8de da3d
00000050: 4846 0a3c 5766 d33e 3681 b13d c587 3bbe
00000060: fc49 4e3e 7521 07be 2df5 be3d a31c ce3e
00000070: 713b 9d3e 5463 87be 3c4a 993e 229a bc3d
0.5174042 -0.04214972 -0.21473116 -0.020449588 -0.3868272 -0.18135267 -0.3460265 0.17850368
-0.5116865 -0.15588948 -0.38979256 -0.28447962 0.08165616 -0.42427778 0.57258207 -0.3423685
0.50234437 -0.03965508 -0.2601936 0.10687047 0.008439608 0.41289017 0.08667223 -0.1831351
0.2014541 -0.13196357 0.09324107 0.40256223 0.30709413 -0.2644297 0.2993945 0.09209086

models.M_1.adaptive_layer_3.linear.bias f4 [8]
00000000: 397c 45bc d8b5 bdbd b1d2 85be ef86 a13c
00000010: 668f 1cbe fa30 353e 6b99 18bc 22b0 903b
-0.012053543 -0.092631996 -0.26137307 0.019717662 -0.15289077 0.17694464 -0.009313921 0.004415528

models.M_1.bn3.weight f4 [8]
00000000: 51c1 8e3f 516c 853f 4b48 933f 8820 843f
00000010: b50e 843f ff24 473f ae56 913f ec30 663f
1.1152745 1.042368 1.1506437 1.0322428 1.0316988 0.77790827 1.1354578 0.899184

models.M_1.bn3.bias f4 [8]
00000000: 13eb e83d b733 923d 670b a23d 26f1 f5bd
00000010: fc77 0b3e 1bf2 f4bd f467 6cbd c660 39bd
0.11372962 0.0713877 0.07912331 -0.12008886 0.13619989 -0.119602405 -0.057716325 -0.045258306

models.M_1.bn3.running_mean f4 [8]
00000000: 8454 ff3d 8ab0 e8be efc4 67bf 0fb9 44bc
00000010: e6a7 8d3d b1be ac3e 3aae b63e 0f35 8b3e
0.12467292 -0.4544719 -0.9053487 -0.012007012 0.0691679 0.33739236 0.356798 0.27188918

models.M_1.bn3.running_var f4 [8]
00000000: 9f12 943d 8d2c 0c3d 4704 193e 18ca e93d
00000010: 5a51 733d 0e9d 7e3d b686 5e3d 885b d23c
0.07230114 0.034222174 0.14943038 0.114154994 0.059403755 0.062161498 0.05432769 0.025678411

models.M_1.fc_out.weight f4 [1, 8]
00000000: 8594 383e dadc c13d 3640 af3e f5a2 25be
00000010: 5287 203e a15b a1bd 8efe b33d d232 25bd
0.18025406 0.09465952 0.34228677 -0.16175444 0.1567662 -0.07878805 0.08788787 -0.04033167

models.M_2.adaptive_layer_1.gate f4 [8]
00000000: 4e94 33bb 2af1 a7bc 6b86 d8ba 42ee 373c
00000010: a89c 4dbc de4d dfbc d006 e2bb 4448 13bc
-0.002740163 -0.020500738 -0.0016519552 0.011226239 -0.012549557 -0.02725881 -0.006897785 -0.008989397

models.M_2.adaptive_layer_1.linear.weight f4 [8, 4]
00000000: 7e11 32be 7f68 b03e 6274 9abe cba6 a6be
00000010: 84ca 93be 800d e03e 0306 5e3e e159 bc3e
00000020: 8732 f0be 7555 f3be 69db adbe c404 83be
00000030: 1b86 953e 0967 703e e075 e23e 1f89 88be
00000040: 403d 9cbe f5dd 8d3e e5fa 8ebe 950f ae3e
00000050: b60d 16be b8cc 943e 3c16 cbbe c595 45be
00000060: 453c 3a3e 8089 093e eee5 77bd a850 423e
00000070: dd49 c53e c0af 98be 804f a1be b670 c63e
-0.17389485 0.34454724 -0.30166918 -0.32549128 -0.28865445 0.437603 0.21681981 0.36787322
-0.4691355 -0.47526136 -0.3395646 -0.25589573 0.29203877 0.23476805 0.44230556 -0.26667115
-0.3051548 0.27708402 -0.27925792 0.33996263 -0.14653668 0.29062438 -0.396654 -0.19295414
0.18187054 0.13431358 -0.060522012 0.1897608 0.38532916 -0.29821587 -0.31505966 0.38757867

models.M_2.adaptive_layer_1.linear.bias f4 [8]
00000000: 5124 ae3a ee33 9fbb ae83 55be 8cd1 2e3a
00000010: fe86 903a 7732 d139 7970 30bd 4fae 63b9
0.001328597 -0.0048584854 -0.20851013 0.0006668798 0.0011026559 0.00039901186 -0.043076012 -0.00021713342

models.M_2.bn1.weight f4 [8]
00000000: f3c1 7e3f 5e6d 6b3f 627b 7c3f 9d1f 813f
00000010: 0c5a 6d3f 3a83 5b3f f9ad 633f 585a 693f
0.99514693 0.91963756 0.9862577 1.0087773 0.92715526 0.8574711 0.88937336 0.9115348

models.M_2.bn1.bias f4 [8]
00000000: fccd 4bbb 480b 23bd 5dcc 873d 896e 263e
00000010: 4b37 b83c 52de 31bc e71e 04bd 22bc 8ebd
-0.0031098118 -0.03980568 0.06630776 0.16253103 0.022487303 -0.010856228 -0.032256033 -0.06969477

models.M_2.bn1.running_mean f4 [8]
00000000: a1d7 123d 99cc ca3d 443b bfbe 732a 0b3e
00000010: 549a 5a3c b29d d23c 39d2 b53c 139e 1cbd
0.03585017 0.09902305 -0.37349904 0.13590412 0.013342459 0.02570996 0.022194969 -0.03823669

models.M_2.bn1.running_var f4 [8]
00000000: 1d4c 153c c8c3 693c 9fc4 d23c bca3 403c
00000010: 1966 1c3c eceb 133c 2eac 9f3b f722 913c
0.009112385 0.014267869 0.025728522 0.011757787 0.009545826 0.009028416 0.0048728203 0.017716868

models.M_2.adaptive_layer_2.gate f4 [16]
00000000: 899d bd3a 011f 50ba 48a1 a13b 3faf 15bb
00000010: 2289 1c38 246f 94b9 713b ddba b721 43ba
00000020: 4d0a b93b e23e a6b9 9521 ccbb 8c79 a439
00000030: 83af bcbb 70f0 3b3b 5930 b7ba 2f85 273b
0.0014466505 -0.000793919 0.0049325563 -0.002284005 3.7321013e-05 -0.00028311566 -0.0016878677 -0.00074436836
0.00564698 -0.0003170884 -0.006229589 0.00031371077 -0.0057582273 0.0028677247 -0.0013976201 0.0025561561

models.M_2.adaptive_layer_2.linear.weight f4 [16, 8]
00000000: d3e1 d8be acc2 b6be 973a 35be 623e c5be
00000010: 020f b0be 2ff4 433e 6d87 f8bd 9ead 013e
00000020: 5388 abbe 7a7e 4fbe caa4 2abe a8a1 333d
00000030: 6c29 50be 901e 06be 0981 59be f2b7 973c
00000040: 7e20 e3bd bcdc efbc 47d5 cfbe fbd4 a7be
00000050: 9c10 57be ae39 e8bd 7b3f 83be 5efb 963e
00000060: 4b4e 99bc 3908 8e3e 865d 9d3d 645f 92be
00000070: 5908 733e d342 80bd 1c6e f4bd d60c 81be
00000080: 6949 c2be 4c19 f43d 0f4b 3abc 52db 733d
00000090: 240c a3be 6509 703e 82c3 a4be e842 d2bd
000000a0: 8233 e13d 8aba 873e 52ed a53e c6e0 933e
000000b0: 0d4a 86be e67a fe3d eb9f 35be e3c0 91bd
000000c0: 48ea 5bbe 3187 a73e 8211 b0be 0514 a63d
000000d0: b57b 0f3e 629b 013e 651c 5fbe 2c98 9b3e
000000e0: 57de fd3d 542d b13c 3e6a c2be 3f96 373e
000000f0: 0e16 90bd 1b65 efbd f771 953e c8aa 703d
00000100: cac6 3abe 0958 54be ca16 de3c de39 813c
00000110: 1bab 8fbc d30c 31be acfd 9abe e6f6 9fbe
00000120: 20d5 563d c7dd 053e ece1 e2be 33af d63d
00000130: c3e0 473e 127a 76bd 04cd 58bd ae3c 663e
00000140: b2ae 0a3e 64f6 023e 51d5 edbc d7c1 72be
00000150: f470 8f3d ec3e 84bc 2285 56be c20f 233e
00000160: f91d 9b3e 21ba 8ebc 1406 cfbd 7684 4b3d
00000170: e9aa adbd cd2e 32bc 5a7b e83d 52c9 93be
00000180: e09b 0abe 856b 963e 772c 223d 9be6 23bd
00000190: 2fd4 74be a4fd f8bd 9b20 aabe 2b35 52be
000001a0: 0b1a 073e a432 8e3e 8d52 9b3d 1f51 50be
000001b0: 9010 4dbe bd86 53bd 1e8d ba3e df69 213d
000001c0: 8399 5abe 08fc ea3c 83e9 99bd 7b47 89be
000001d0: 1ef4 ed3d 4591 4bbe c4ba 45be ac6c c6be
000001e0: 6944 1e3e 8b69 313e 1a92 123e ccf8 a0be
000001f0: d562 ebbe ddbd afbe 69a6 b43d 4108 5b3d
-0.4235979 -0.35695398 -0.17698132 -0.38524157 -0.3438645 0.19136117 -0.121352054 0.12663886
-0.33502445 -0.2026309 -0.16664425 0.04385534 -0.20328301 -0.13097596 -0.2124063 0.01852033
-0.11090182 -0.029280059 -0.40592405 -0.3277968 -0.2100243 -0.113391265 -0.2563437 0.29488653
-0.01871409 0.27740648 0.07683854 -0.28588402 0.23733653 -0.06262746 -0.11935064 -0.25205106
-0.37946633 0.119188875 -0.011370434 0.059535332 -0.318452 0.23441084 -0.3218041 -0.102666676
0.109961525 0.26509506 0.32407624 0.28882426 -0.2622837 0.12425785 -0.17736785 -0.07116868
-0.2147609 0.3272033 -0.34388357 0.08109287 0.14012034 0.1265693 -0.21788175 0.30389535
0.123959236 0.02162806 -0.3797168 0.17928408 -0.070354566 -0.11689206 0.2918851 0.05875662
-0.18239895 -0.20736708 0.027110476 0.015774664 -0.017537644 -0.17290048 -0.3027166 -0.31243056
0.052449346 0.13072883 -0.4431299 0.10482635 0.19519334 -0.06017501 -0.052929893 0.22484085
0.13543203 0.12789303 -0.029032381 -0.23706757 0.07003966 -0.016143285 -0.20949224 0.1592398
0.30296305 -0.017422738 -0.10108581 0.04968687 -0.08479864 -0.010875416 0.113516524 -0.28864533
-0.13536024 0.29378906 0.039593186 -0.040014844 -0.23909067 -0.12157753 -0.33228 -0.20528094
0.13193528 0.2777301 0.07584105 -0.20343445 -0.2002585 -0.05164217 0.3643579 0.039407607
-0.21347623 0.028684631 -0.07515242 -0.26812348 0.11618827 -0.19879635 -0.19309527 -0.38754785
0.15455784 0.17325418 0.14313546 -0.31439817 -0.4597384 -0.34324542 0.08820803 0.05347467

models.M_2.adaptive_layer_2.linear.bias f4 [16]
00000000: f32b 9eba 2dc9 bdba fe8b 663a b329 bbba
00000010: 8ec4 a9ba cb4f 843a 95b6 aebc d8e1 a03a
00000020: 5db2 7fbb 285a 32b9 6eb3 48bb 05a2 833a
00000030: de7e 2db9 d3c1 a53a dd03 bc3a e870 c83a
-0.0012067541 -0.0014479511 0.0008794664 -0.0014279395 -0.0012952255 0.0010094581 -0.021327296 0.0012274338
-0.0039016225 -0.00017008989 -0.0030624527 0.0010042792 -0.00016545827 0.0012646265 0.0014344413 0.0015292438

models.M_2.bn2.weight f4 [16]
00000000: 85af 613f 2029 833f 3bd9 6b3f c3be 743f
00000010: 244c 823f 9c43 6b3f fa55 643f 416f 693f
00000020: ef5b 773f cc94 6a3f 773f 723f 0869 6d3f
00000030: 2da8 793f 86cf 813f fd27 7e3f 042a 573f
0.88158447 1.0246925 0.9212834 0.9560358 1.0179486 0.9190004 0.8919369 0.91185385
0.96624655 0.91633296 0.9462809 0.9273839 0.9752224 1.0141456 0.9927977 0.84048486

models.M_2.bn2.bias f4 [16]
00000000: 3b61 3fbe 9b6c 8f3d f13b 72be 7bf3 c9bc
00000010: 8a4e 953d 0d08 a7bd da4f 1a3c 6a2a 9dbc
00000020: 588e 293d 22b6 edbd 4c81 273c bb8d d33d
00000030: 1ed7 c6bc 0fb0 883c 0805 93bc 88bf aa3c
-0.18689434 0.07003137 -0.23655678 -0.024652233 0.07290371 -0.081558324 0.009418452 -0.019185264
0.041395515 -0.11607005 0.010223698 0.10329767 -0.024272498 0.016685514 -0.017946735 0.020843282

models.M_2.bn2.running_mean f4 [16]
00000000: c07d cbbe d4d5 c7be 71fc 97be 517c 4c3d
00000010: a6ba 00be 9d67 573e 09ef b73d 773d d23b
00000020: 0f8b 9dbe 228d a23d 7734 6d3d ac01 f83a
00000030: b50b 20be 93dd fc3d 5389 90be ecdf 07be
-0.39744377 -0.39030325 -0.29684785 0.049923245 -0.125712 0.21035619 0.08981139 0.0064160186
-0.30770156 0.07937075 0.057911362 0.0018921397 -0.15629466 0.123469494 -0.2822977 -0.13269013

models.M_2.bn2.running_var f4 [16]
00000000: 2781 b23d 25e0 8e3d cda2 113d b327 4f3d
00000010: a826 263d 0f11 3c3d 2c1f a93d 54dc 7f3d
00000020: 335b 833d 4d66 913d d0b0 a73c 10d8 df3c
00000030: 557d 7f3d 3c47 9a3c 4723 1f3d 3b78 4b3d
0.0871604 0.06976346 0.03555565 0.05057497 0.04056421 0.045914706 0.08257899 0.06246598
0.06413879 0.070995905 0.020470053 0.027324706 0.062375385 0.018832795 0.038852002 0.049675208

models.M_2.adaptive_layer_3.gate f4 [32]
00000000: f180 39ba bd2d 95ba ee21 bcb9 cd74 02ba
00000010: 58e9 133b 8ff8 e93a 683e 843a 994c aaba
00000020: 465c deba 274f c1ba 4f47 1fbb 0923 b63a
00000030: 272c efba 78be d8ba 8786 13ba 3f2f ba37
00000040: e900 d83a 446d c13a fb37 c13b e0b8 b73a
00000050: 8da3 be3a 14cf 44bb bfa8 8cba 9102 683b
00000060: c6eb 29bb 4430 b8ba bf10 e1ba 4b28 c8ba
00000070: 011d 18bb 2c93 803a c8d8 3e3a 5e1c 15ba
-0.00070764037 -0.0011381429 -0.00035883434 -0.0004976511 0.0022569504 0.0017850565 0.0010089399 -0.0012992799
-0.0016964755 -0.0014748321 -0.0024303978 0.0013895939 -0.0018247411 -0.0016536256 -0.0005627651 2.2194929e-05
0.0016479763 0.0014757295 0.005896566 0.0014016889 0.0014544592 -0.0030030655 -0.0010731443 0.003540192
-0.0025927885 -0.001405247 -0.0017171128 -0.0015270797 -0.0023210647 0.0009809486 0.0007280228 -0.0005688126

models.M_2.adaptive_layer_3.linear.weight f4 [32, 16]
00000000: 3323 cf3d 570e 223d d330 aabd c221 86bd
00000010: 419a d0bd 9a76 ddbd 86b3 43be eb94 8f3e
00000020: 354a 0bbd 5e01 d83d e5ce 5e3e 8b6f 323e
00000030: da04 94bd 8a05 fb3d a1fe 3ebd 3e24 513e
00000040: 030f 333e ae6d fabd 2bea bcbc acbc c4bd
00000050: 7f97 73be b7a3 d33d 1e63 73be b0d1 6d3d
00000060: 3028 dc3d 26b3 783e d646 b9bd 9713 8abe
00000070: 00b9 753d 7264 293e 6509 79be d142 0abe
00000080: ea0c d0bd 993a 1bbd 980f 3bbe d3c2 2abd
00000090: 4fd6 603c 188d 0cbe 88d8 833e 393b 973e
000000a0: 2191 bf3d c1d6 b23c 2068 2e3d 1868 28be
000000b0: 49b7 32be c5bd 193e 1fde 8f3b 4848 e8bd
000000c0: 3a8c 72bd 0317 14be f0d0 11be b01c 63bd
000000d0: a312 d3bd 6074 cfbd 4311 04be 0096 27be
000000e0: a6ee 4e3e 546f 14be b088 0fbd 49d9 27bd
000000f0: 4e97 b6bd 2598 fd3d 770e d63c d2b2 61be
00000100: 74d5 813d f239 023e 85ee 1e3d 365d 083e
00000110: 95d7 2f3e b2c0 d0bd b56f 413d e7a4 53be
00000120: f53c 5abe 5b79 563e 6daf 843d 9ed0 61be
00000130: 07bb 8cbe 2bb1 25be 9ae2 d2bd 8acd 62be
00000140: 1705 88bc 8188 573e 2966 573d 2d52 b5bd
00000150: 469f 1bbe 4956 023e c84f 15be 5c45 403d
00000160: 5952 7d3e 05d0 27be dfdc 55bb 580f 143d
00000170: 05f2 aebd 68ff 01be 4a28 8abe 2948 e7bd
00000180: e0f1 2abe 5f19 543e daea 11be 09ba 5fbe
00000190: a436 183c a48a 9fbc 6710 a4bc 60f5 a13d
000001a0: abeb 903d 0b2f a3be 1b14 bcbd e36d 853d
000001b0: 33b9 11bc b076 a5be 5250 603e 41f0 36be
000001c0: 8315 f7bd f084 04be fd62 573c a882 143e
000001d0: 427f 063e 5aaf 013e d6e6 33be 5146 1cbe
000001e0: f16f 093e 022e 5f3e b7d9 5d3e 8976 0ebe
000001f0: ab27 9b3d f677 3fbe 6ed1 43bd f7f9 963d
00000200: d913 943d d40d 153e e969 4dbe 9b69 d83c
00000210: afa6 99be d3da aabc fec4 ca3d d183 d9bd
00000220: fd2b 293e 0004 98be e099 77be 8601 863d
00000230: 788d d9bd 296f 31be d548 6dbe 871f cf3d
00000240: a668 573e a89a 3d3d a924 98bd 59ba 5dbe
00000250: 7ba1 8c3a 4d7c b23d 38e7 89bd d58e 1d3d
00000260: 1643 843e 85a2 43bd aec2 553d 57fa 6abd
00000270: c52a 86be d15f 75be 6c01 bfbd 3ad5 04bd
00000280: 3379 33bc af77 c8bd d092 aabd c075 1d3e
00000290: 9eb1 783d 7c3b f33d 01cd 76be a8a7 6ebe
000002a0: bea6 8cbc bdfc 14be e861 62be 8cbf e7bd
000002b0: 00a0 a3bd 6537 78be 86d1 ec3d f183 0f3e
000002c0: c72f 1f3c 6c6b a4bd 865e 51be c428 a4bd
000002d0: 94e5 eb3c 3cae 073e c9e6 4bbd 1749 b8bd
000002e0: 13cf 9d3d 142a 37be 4cd7 a43d 404b f6bd
000002f0: 9c9d 8bbd 7726 56bd 7a8e 90bd 2c03 d7bd
00000300: 207f 793e fe42 08bb d730 633e 4a28 7d3e
00000310: 3b34 94bd 558e f5bd 5bd4 4f3e 821b 933e
00000320: 83d9 a5bd 00ed 2ebd aac6 0abe 2215 4ebe
00000330: 8c36 c43c 8f3e a13d 98d9 8a3d cef1 3d3d
00000340: 76bb 8b3e 8c25 b1bc 0931 76be dca4 f7bc
00000350: be20 a03d 8ea7 cf3d 3284 45be 6291 493d
00000360: 0282 83be 45d5 1cbe 6625 23be 4108 983e
00000370: 987e 413e 33b6 633e 7c8d 2a3e 203b b73d
00000380: 4ed0 12be 351c 42be 81c1 173e 7dad 5bbe
00000390: 51d5 85be 7637 11be eb20 8a3b ce25 183d
000003a0: ef73 54be b8e2 23be 5d2d a7bd 576b 30be
000003b0: 9eb5 60be 3de9 803d 0ed0 21be 0598 c33d
000003c0: 118d 3d3e 1fd5 5a3d 51ee a03d b513 13bd
000003d0: d5f6 9abd b773 0dbe bbe4 b6bd 981a 8cbc
000003e0: d126 2e3e d59b 2ebe 41c0 50be 7d8f dabd
000003f0: 8fa9 47be 8ba7 16bd a24c ec3c 2ad8 9b3d
0.101141356 0.039564457 -0.08310094 -0.065494075 -0.101856716 -0.10813637 -0.19111452 0.28043303
-0.034006316 0.10547136 0.21758612 0.17425363 -0.07227488 0.12256916 -0.04662955 0.20423982
0.17486195 -0.12227951 -0.023060879 -0.09606299 -0.2378826 0.103339605 -0.23768279 0.0580613
0.10749853 0.2428709 -0.09046714 -0.2696807 0.059990883 0.16542223 -0.2431999 -0.13502051
-0.10158713 -0.03789768 -0.18267667 -0.041689705 0.01372297 -0.13725698 0.25751138 0.2953737
0.09353853 0.021830918 0.04257977 -0.16445959 -0.1745273 0.15013798 0.0043904926 -0.113419116
-0.05921576 -0.14461903 -0.1423986 -0.05544728 -0.10306289 -0.10129619 -0.1289721 -0.16365814
0.20208225 -0.14495593 -0.035042465 -0.040978704 -0.08915578 0.12382535 0.026129944 -0.22040871
0.06339541 0.12717417 0.03880169 0.13316807 0.17172082 -0.10193004 0.047225673 -0.20668374
-0.21312316 0.20944731 0.06478772 -0.22052237 -0.2748644 -0.16180865 -0.10297127 -0.2214872
-0.01660399 0.21048166 0.052587662 -0.088535644 -0.15197477 0.12728228 -0.14581215 0.046941146
0.24738444 -0.16387947 -0.003263287 0.036147445 -0.08542255 -0.12695086 -0.26983863 -0.1129306
-0.1669383 0.20712803 -0.14249745 -0.2184831 0.009290371 -0.019475289 -0.020027352 0.0790813
0.070762 -0.31871828 -0.09183522 0.065151 -0.008894253 -0.32317114 0.2190564 -0.17865087
-0.1206465 -0.12941337 0.013146159 0.14502966 0.13134483 0.12664548 -0.17568526 -0.15261199
0.13421609 0.21794894 0.21665083 -0.13912405 0.075759254 -0.18698105 -0.04780715 0.07371896
0.07230348 0.14556056 -0.20059933 0.026417544 -0.30009982 -0.020856297 0.099008545 -0.10620845
0.16520686 -0.29690552 -0.24179792 0.06543259 -0.10622686 -0.1732756 -0.23172314 0.10113435
0.21036014 0.04629007 -0.07428867 -0.21653117 0.0010729277 0.08715115 -0.067335546 0.038466293
0.25832433 -0.047762413 0.052187614 -0.05736765 -0.26204506 -0.23962332 -0.09326443 -0.03242991
-0.010954189 -0.09788453 -0.083287835 0.1537695 0.060716264 0.1187658 -0.2410164 -0.23306143
-0.017169353 -0.14549537 -0.22107661 -0.113158315 -0.07989502 -0.24239881 0.11563401 0.14015175
0.009715981 -0.080283016 -0.20446214 -0.08015588 0.028795995 0.13250059 -0.04978064 -0.08998316
0.07705512 -0.17887145 0.08048877 -0.120260715 -0.06817171 -0.052282777 -0.07058425 -0.10498652
0.243649 -0.0020791884 0.221866 0.247224 -0.07236525 -0.11990038 0.20295851 0.28731924
-0.08098128 -0.04270649 -0.13552347 -0.20125249 0.023951791 0.0787326 0.06779784 0.04637318
0.2729146 -0.021624349 -0.24042143 -0.030229978 0.07818745 0.101393804 -0.1928871 0.049210913
-0.25685126 -0.15315731 -0.15932235 0.29693797 0.18895948 0.22237472 0.16655535 0.08946824
-0.14337274 -0.18956073 0.1481991 -0.214529 -0.2613931 -0.14181313 0.00421535 0.03714543
-0.2074735 -0.16004455 -0.08162949 -0.17228447 -0.21944281 0.06294487 -0.15802023 0.0955048
0.18510844 0.053425904 0.07857955 -0.035907466 -0.07566611 -0.13813673 -0.089303456 -0.017102525
0.17006995 -0.17051633 -0.20385839 -0.106718995 -0.19498275 -0.036780875 0.028845135 0.076095894

models.M_2.adaptive_layer_3.linear.bias f4 [32]
00000000: 23bd 67ba 3eff acba 15be ffb9 b7b5 e2bb
00000010: 7e07 ac39 e13a dcba 65fc beba ab48 c63a
00000020: 4489 3b39 7b44 4b3a 4ad2 b13a 26ad cdba
00000030: 8272 bd3a da55 bbba 462e b9b7 e5b8 09ba
00000040: 6af3 15bb 371d 72ba 7385 afba 3c8b 72b9
00000050: e433 94ba 499d 6bba 6b31 91b9 4d2f 4aba
00000060: 57b9 51ba 6dd1 8939 5c89 acba fbfe 9dba
00000070: db59 a9ba 6641 843a 46e2 db39 0457 973a
-0.0008840134 -0.0013198627 -0.00048779012 -0.0069186348 0.0003281198 -0.0016802215 -0.0014571069 0.0015127858
0.00017884845 0.000775404 0.0013566699 -0.0015691861 0.0014453682 -0.0014292554 -2.2075266e-05 -0.00052536867
-0.0022880682 -0.0009235921 -0.0013391211 -0.00023130787 -0.0011306969 -0.0008987976 -0.00027693374 -0.0007712737
-0.0008000335 0.0002628671 -0.0013163495 -0.001205414 -0.0012920456 0.0010090291 0.00041939522 0.0011546318

models.M_2.bn3.weight f4 [32]
00000000: 2ca6 643f 1f06 623f 0e94 6c3f 01a9 393f
00000010: 81d7 6d3f a6c3 6b3f 27b9 603f eae3 653f
00000020: e186 653f a02f 763f 35fe 713f fc63 383f
00000030: 4be8 713f 8e80 593f 34d3 6a3f f7d8 5f3f
00000040: 0b31 403f 91f2 563f aa94 563f f0b4 6b3f
00000050: b5e5 683f b102 6a3f 6716 833f 403d 813f
00000060: ca04 653f e1a1 4d3f 26ae 653f 131e 773f
00000070: 7fc1 713f c366 423f 94a2 393f 3009 623f
0.8931606 0.8829059 0.92413414 0.72523504 0.9290696 0.9209541 0.8778252 0.89800894
0.89658934 0.9616642 0.94528514 0.72027564 0.94495076 0.84961784 0.9172852 0.8744044
0.75074834 0.83963877 0.83820593 0.92072964 0.90975505 0.91410357 1.0241212 1.0096817
0.8946043 0.8032513 0.89718854 0.96530265 0.94435877 0.7593805 0.725137 0.8829527

models.M_2.bn3.bias f4 [32]
00000000: ab26 05be ed84 cc3d 92f5 15be 9f5e f8bd
00000010: a828 8f3d 7d33 2fbe 2c07 a93d 4d03 17be
00000020: 3703 983d 0d00 4ebe 6e43 c23b 2e77 26be
00000030: 5072 2dbe 2743 df3d 9f4b c83d d438 1e3d
00000040: ea2a dbbd 003a 9abd eba2 723d 9d6d 7b3d
00000050: 6077 dc3d 0d88 963d 45b3 c4bd 0741 663d
00000060: 197f ad3d 2fb9 b7bd e6b9 603d a138 063e
00000070: e015 5d3c f258 edbd 10e6 d5bd b0a2 12be
-0.13003032 0.09986291 -0.14644459 -0.121274225 0.069901764 -0.17109485 0.08253321 -0.14747353
0.07422488 -0.20117207 0.0059284484 -0.16256401 -0.16938138 0.1090148 0.097800486 0.038628414
-0.107015446 -0.07530594 0.059237402 0.061383832 0.107649565 0.073501684 -0.096045054 0.05621436
0.084715076 -0.08970868 0.054864787 0.1310754 0.013493985 -0.115892306 -0.104442716 -0.14319873

models.M_2.bn3.running_mean f4 [32]
00000000: 7c13 683e c208 9abd 8f47 50bd 24b5 abbe
00000010: 38ed 1fbe 0ee1 1bbe d47e a2be f416 0e3d
00000020: a72a a5be a26e 23be a39a b9be 75fa 53be
00000030: 2d08 2f3e 21c4 253e 4407 0fbf 1b28 19be
00000040: a306 95be 4e10 9f3e e6c3 49be d4e6 bdbe
00000050: f8b2 f0be 36d2 e1be 68e5 0b3d 4f14 35bf
00000060: c044 24bf 0797 2ebe bd51 bebe b3dc 47be
00000070: a065 9dbe 3c41 85bc 9428 8c3e 01b0 8a3e
0.22663683 -0.07521202 -0.050849494 -0.33536637 -0.15617836 -0.1522257 -0.31737387 0.03468986
-0.32259104 -0.15960172 -0.3625079 -0.2070101 0.17092963 0.16188098 -0.5587046 -0.14956705
-0.29106626 0.31067127 -0.19703636 -0.3709017 -0.47011542 -0.4410569 0.034154326 -0.70734113
-0.64167404 -0.170498 -0.37171736 -0.19517784 -0.30741596 -0.016266458 0.2737471 0.27087405

models.M_2.bn3.running_var f4 [32]
00000000: 89ac 9a3d 0096 5d3d 35f9 013e 04d1 ca3d
00000010: edc9 923d 0dce ae3d f681 0d3e 9853 fe3d
00000020: 688c 0c3e a824 c23d da21 f13d 2a1f 893d
00000030: 5113 0a3e 0e97 903d 38b5 593e c2f3 0b3e
00000040: e2ed 133e 5160 c03d f038 d33d b54c 863d
00000050: b91b 063e dd83 813d d7c4 c43d 538c ff3d
00000060: e3c0 9f3d 0c4d 8d3d e205 7d3e dd54 b33d
00000070: 55ae d33d 11f3 0e3d 64a0 f13d 72b8 f53d
0.0755244 0.05409813 0.12692721 0.09903148 0.071674205 0.08535395 0.13819107 0.12418288
0.13725436 0.09479648 0.11774035 0.06695397 0.13483931 0.070600614 0.21260536 0.13667205
0.14446214 0.09393371 0.10313594 0.065575995 0.13096513 0.06323979 0.09607857 0.124779366
0.07800462 0.06899461 0.24709275 0.08756421 0.103359856 0.034899775 0.1179817 0.11998071

models.M_2.fc_out.weight f4 [1, 32]
00000000: d368 2dbd 6996 dc3d aada 6cbd 6e8d 98bb
00000010: 74a7 193d 0888 60bb 3788 c43d b366 6abc
00000020: fba6 843d ce7a f1bb 8f02 e73d bdf8 893b
00000030: f413 aebc b969 473d f357 823d b1c0 a53d
00000040: a570 7e3c 6328 8e3c 6c16 903d b812 373d
00000050: 896b b73d 8df4 b63d 5cb4 edbc 2ff7 a53d
00000060: edac e53d c65e cd3b ae7b c63d 3beb 013e
00000070: 3b83 f93d d291 8c3c bb6e 3a3c ef3f aeba
-0.042336296 0.10770876 -0.05782572 -0.0046555316 0.03751321 -0.0034260768 0.095962934 -0.014306712
0.064771615 -0.007369376 0.11279785 0.00421056 -0.021249749 0.04868481 0.06364431 0.080933936
0.015529786 0.017353242 0.07035527 0.044695586 0.089560576 0.08933363 -0.029016666 0.08103787
0.112146236 0.0062674014 0.09691559 0.1268739 0.12183233 0.017159376 0.011378939 -0.00132942

models.M_3.adaptive_layer_1.gate f4 [4]
00000000: 1ebb 05bc 987d e63b 3794 de3c 47ea 003c
-0.008162288 0.007034015 0.027170284 0.007868356

models.M_3.adaptive_layer_1.linear.weight f4 [4, 2]
00000000: 7773 a93e 3163 d7be 96df 9d3e 21ed 96be
00000010: fe39 a73e df5a 05be 6ede 2fbf b44b bdbe
0.33095905 -0.42067865 0.30834645 -0.2947779 0.32661432 -0.13022946 -0.68698776 -0.3697182

models.M_3.adaptive_layer_1.linear.bias f4 [4]
00000000: c107 79be f982 4a3d eb38 39be e24e 0cba
-0.24319364 0.04944131 -0.18088119 -0.00053523306

models.M_3.bn1.weight f4 [4]
00000000: af07 643f 3baa 863f 5215 863f 1188 5a3f
0.89074224 1.05207 1.0475256 0.8536387

models.M_3.bn1.bias f4 [4]
00000000: 5b2c 173d 91e8 cb3c f495 2d3d f0e8 1bbe
0.036907535 0.02489117 0.042379335 -0.15225577

models.M_3.bn1.running_mean f4 [4]
00000000: d02e 96bd 6a8c f83d 8a24 03bc 0e46 91be
-0.073331475 0.12136157 -0.008004317 -0.2837376

models.M_3.bn1.running_var f4 [4]
00000000: 7751 fa3b 19fc 883b c1c8 173b 7f41 463c
0.007639106 0.004180443 0.002316043 0.012100576

models.M_3.adaptive_layer_2.gate f4 [8]
00000000: 717d 11bc 470d 42bb ca86 23bb 7731 653b
00000010: 4e85 943b 4378 9c3b c1d9 b337 d5e1 0eba
-0.008880005 -0.0029609965 -0.0024952167 0.003497211 0.0045324927 0.0047750785 2.1439862e-05 -0.0005450522

models.M_3.adaptive_layer_2.linear.weight f4 [8, 4]
00000000: d88b 0a3e 4ad3 92be dd3d ea3d 5e06 d4be
00000010: 6e6f 86be 7567 bfbe 5ac8 87be ca0a 0bbe
00000020: 0dc6 0c3e 8e09 55bc d3db a93e 7b51 c33e
00000030: 8021 683e 2c76 0dbe 918a d1be 5135 7a3e
00000040: 5a04 87be a22d 5a3e 3957 b73e a851 173e
00000050: 01cd 1a3f c3af c13e fff4 d7bd f5b3 31be
00000060: 0dfc c33e 676d a1be 183a a2be 572a b23e
00000070: 5d30 8a3e ca92 3f3d 3118 bb3d be8d e1be
0.13529909 -0.28676826 0.11437581 -0.41411108 -0.2625689 -0.3738362 -0.26520044 -0.13578334
0.13747425 -0.013002766 0.33175525 0.38148102 0.22669029 -0.1381461 -0.4092603 0.24434401
-0.26370507 0.2130647 0.35808733 0.14777243 0.6046906 0.37829408 -0.10544776 -0.17353804
0.38278237 -0.3152878 -0.31684947 0.34797928 0.26990023 0.04677085 0.091354735 -0.44053453

models.M_3.adaptive_layer_2.linear.bias f4 [8]
00000000: 227d 8ab8 eac0 f33d f54e 32ba c84a 98b9
00000010: e45b ebb9 fbae b73a f5aa 5db9 cc07 b339
-6.6036606e-05 0.1190203 -0.00068019266 -0.00029047416 -0.00044891157 0.001401394 -0.00021139889 0.0003414735

models.M_3.bn2.weight f4 [8]
00000000: b0ba 483f da69 4e3f 29db 853f 6428 743f
00000010: 5f15 6b3f f3a3 753f fa10 953f d350 663f
0.7840986 0.80630267 1.0457507 0.9537413 0.91829485 0.9595329 1.1645806 0.8996708

models.M_3.bn2.bias f4 [8]
00000000: 196b 1fbe a107 16be 04c6 7d3d 9f4d 9dbd
00000010: ad05 a23d 0687 9d3d 1fbf 363b 193f c6bd
-0.15568198 -0.14651348 0.06195642 -0.07680821 0.07911239 0.07691769 0.0027884913 -0.09680004

models.M_3.bn2.running_mean f4 [8]
00000000: 12ae dcbc dc27 8fbe 0361 823e 2869 07be
00000010: e882 153e 924b 913e 3706 573b bde5 023e
-0.026938472 -0.27960098 0.2546464 -0.13223708 0.14600718 0.28377968 0.00328101 0.1278295

models.M_3.bn2.running_var f4 [8]
00000000: a8df 4e3c e3a2 a53d b6da cd3c 164d 0d3d
00000010: 4ec5 6b3c 267a 953d f125 cb3c 118e 213d
0.012626566 0.08087709 0.025128704 0.034497343 0.014390303 0.072986886 0.024798365 0.039442126

models.M_3.adaptive_layer_3.gate f4 [16]
00000000: 41f5 ae39 4361 45bb 8ddc 94bc 7ee0 173b
00000010: 93e0 2c3b 63ad 09ba 3dd5 363a 3fa2 5a3a
00000020: 881a 47ba d8f9 823b 3f0b cdb9 1695 03b8
00000030: 0253 1f3b 30b6 97ba 93c0 fc3a bb16 0e3b
0.00033370595 -0.0030117787 -0.018171573 0.002317458 0.0026378974 -0.0005251972 0.0006974524 0.00083402166
-0.0007595201 0.003997069 -0.00039109026 -3.137168e-05 0.002431095 -0.0011574682 0.0019283466 0.002168103

models.M_3.adaptive_layer_3.linear.weight f4 [16, 8]
00000000: 32aa 813e bf2a 2f3d 7fb8 453e 2639 703e
00000010: 7817 743d c103 443e e55f 9a3e d15d c53e
00000020: 0605 ad3e fccb 14bc eb1b 7dbe 8790 73bb
00000030: 1a1b 933c f04b 3bbd 1619 08bd fd9d 9f3c
00000040: 8ec3 063e d779 2a3b 32b9 40be be94 0ebe
00000050: a237 2fbe c6b8 21be fa00 bd3e 7592 1d3e
00000060: a813 4d3e b6ce 9bbd d0b4 6f3d a3a8 613e
00000070: 041e b7be 4e1c 0bbd 45d6 ebbc ad14 88be
00000080: ff8a c3be ade8 603e f716 493e 2f5b 673e
00000090: 2107 6b3e 6630 22be d743 cdbd 8e12 8a3d
000000a0: e2ff 9fbd 6cfc 063d f10f a2be 8412 103d
000000b0: 52cf 63be 1cce 21bd f632 473e 9ea9 d4bd
000000c0: 9713 97be e7a2 023e c3da a9be 1388 383d
000000d0: 2fa6 1c3e 308e 6fbe 12ac 88be 313b 88be
000000e0: a4e9 d3bd 0875 b6bc be24 03be 7c3a 6fbd
000000f0: 538e ee3d ab4b 23be 171d 9ebe 4c3a 26be
00000100: 34aa a8be 56e7 8dbe e112 96be fa8d 483e
00000110: c853 6bbe 52ab 7cbe b78f 9cbe 19a3 273e
00000120: 3bbe 20be c46a b3bd 03e4 a33e 9f75 abbd
00000130: 537d 8b3e fce1 99be 8926 7fbe 9aee cebd
00000140: d902 553e 4e1a 253d 9f22 b1be 54b7 323d
00000150: 9aa8 87be f4fd 1dbe 2120 18be d3ac 4a3e
00000160: b7b3 073e d6b6 213e b923 813d f313 68be
00000170: 857b a63d cc9d 233d a570 a63d 9f00 4bbe
00000180: 3366 573e 427c 08be 759c 4abe af49 513e
00000190: 1034 423e 8702 6a3e 9497 57bd a4f0 6ebe
000001a0: 4765 5c3d c27b 4b3e cc96 febe 2d58 063d
000001b0: d97e a6be 47b4 93bc c1e6 133e 9e7d 35be
000001c0: 0bdd 8abd ecb2 983d 0661 8dbd 662f d6be
000001d0: 65cc 843e 63a4 f6bd 708c 6cbd 85d5 c33c
000001e0: f93f b1bd 1230 24be a8e9 bd3d 1dc9 3ebe
000001f0: 9b20 57be eae7 babd 623d 6ebe 8b62 83be
0.2532516 0.042765375 0.19308661 0.234593 0.059592694 0.19142057 0.30151287 0.3854814
0.33792895 -0.009081837 -0.24717681 -0.0037165002 0.017957259 -0.045726717 -0.03322705 0.019484514
0.13160536 0.0026012564 -0.18820646 -0.13923928 -0.17111066 -0.15793142 0.36914808 0.153879
0.2002703 -0.07607786 0.058522046 0.22036986 -0.35765088 -0.03396254 -0.028788695 -0.26578274
-0.38191983 0.21963759 0.19637667 0.22593378 0.22951938 -0.15838775 -0.10022705 0.0674182
-0.07812478 0.032955572 -0.31652787 0.035173908 -0.22247055 -0.0395032 0.19453034 -0.103839144
-0.29507133 0.12757455 -0.33174714 0.045051645 0.15297769 -0.23394084 -0.2669378 -0.2660766
-0.10347298 -0.022272602 -0.12806985 -0.058405384 0.1164824 -0.15946834 -0.3088157 -0.16233176
-0.32942355 -0.27715558 -0.29311278 0.1958541 -0.22981179 -0.24674729 -0.30578396 0.1637081
-0.15697567 -0.08760598 0.32009897 -0.08372044 0.27244052 -0.30055225 -0.24917044 -0.101041034
0.20801868 0.04030829 -0.34596726 0.043631867 -0.2649582 -0.15428907 -0.14856006 0.1979249
0.1325215 0.15792403 0.06305642 -0.2266386 0.08129028 0.03994541 0.08126954 -0.19824456
0.2103508 -0.1332865 -0.19786246 0.20438264 0.18965173 0.22852527 -0.05263479 -0.23333985
0.053807523 0.19871429 -0.49724424 0.032798935 -0.32518652 -0.018030299 0.14443494 -0.177237
-0.06780442 0.07456002 -0.069032714 -0.41833037 0.2593719 -0.12043073 -0.05775112 0.023905525
-0.0865478 -0.16033962 0.09273082 -0.18631406 -0.21008532 -0.09126265 -0.23265603 -0.2566112

models.M_3.adaptive_layer_3.linear.bias f4 [16]
00000000: c546 c3b9 f641 b1ba acfb 27ba 8e4b 1cbc
00000010: ff61 8039 1d22 91bc 9cdd 13bc a96e c53a
00000020: 445c 303a d3c3 0bba bd51 5dbb 808a adba
00000030: ae90 0c39 aca8 2b3a c51f 94bd 0721 943a
-0.00037246026 -0.0013523686 -0.00064080465 -0.009539498 0.00024487075 -0.017716462 -0.009025004 0.0015062887
0.0006727616 -0.0005331609 -0.0033770644 -0.0013240129 0.00013405338 0.00065482664 -0.07232622 0.0011301347

models.M_3.bn3.weight f4 [16]
00000000: bf1f 573f 77be 653f c023 623f 529a 653f
00000010: 2203 813f 92ae 633f 10e1 713f 8eca 5c3f
00000020: 0419 7d3f c473 6b3f b02d 773f cf76 833f
00000030: c5e9 6e3f 59e5 6d3f 62bb 663f ca86 433f
0.84032816 0.8974375 0.883358 0.896886 1.0079081 0.8893825 0.94484043 0.86246574
0.98866296 0.9197352 0.9655409 1.0270633 0.93325454 0.9292808 0.90129673 0.76377547

models.M_3.bn3.bias f4 [16]
00000000: 0da0 4cbe 1870 1ebe 3c80 4a3c d210 d43b
00000010: 2e1f 903d c3c1 0ebe 7b1f 3d3d 3e7c 4bbe
00000020: f1f6 733d c29b 31be e724 87bd cd0e 5dbe
00000030: 3ded ed3c e77a 5a3d be0e 9b3d 5e33 55be
-0.1998293 -0.15472448 0.012359675 0.0064717317 0.07037197 -0.13941102 0.0461726 -0.19871613
0.059561674 -0.17344573 -0.065988354 -0.21587677 0.029043788 0.053339865 0.07571171 -0.20820376

models.M_3.bn3.running_mean f4 [16]
00000000: a16a 243f 8fa6 1bbd 3397 edbc 3080 cfbd
00000010: 0c52 fe3d b466 a4be 090f e6be 7bfd a7be
00000020: 8aee 34bf 7379 b03a 1367 a8be a063 233e
00000030: 8bbc 5c3e 2ff3 cabe cac4 d9bd 67c6 a4be
0.642252 -0.03800064 -0.029002761 -0.10131872 0.12417993 -0.32109606 -0.44933346 -0.32810578
-0.7067648 0.0013463929 -0.3289114 0.15955973 0.21556298 -0.3963866 -0.10633238 -0.3218262

models.M_3.bn3.running_var f4 [16]
00000000: a764 3a3e 4313 913c 1244 613d 2d79 8b3d
00000010: 8914 123d 6b37 5e3e 8c97 253e bf80 463d
00000020: 2e42 a23e edde 8b3d 29a3 ea3d 8316 3f3d
00000030: 2a38 2b3d 93bf b23e e608 783d 558a 193d
0.18202458 0.01770938 0.054996558 0.06810222 0.035664115 0.21700828 0.16171092 0.048462626
0.31691116 0.06829629 0.114569016 0.04665233 0.04180161 0.34911785 0.06055536 0.03748544

models.M_3.fc_out.weight f4 [1, 16]
00000000: 9e7e 62bd 94b1 8fbd 7d2c 2e3e 21a7 873d
00000010: cf2c 323d 9c6b ba3c 44d4 803d e7c8 c7bc
00000020: 9e44 223e 4537 1ebd eb7d 0e3d 22f6 1abc
00000030: b027 2b3d 9cc8 703e 656b 103e 5368 5ebc
-0.055296533 -0.07016292 0.17009158 0.06623674 0.043499764 0.02275639 0.062904865 -0.02438779
0.15846488 -0.038626928 0.034788053 -0.009458097 0.041785896 0.23514026 0.14103468 -0.0135746775

models.M_4.adaptive_layer_1.gate f4 [8]
00000000: b4e5 d83b 1ced 98bc e46f 11bc 4331 1a3c
00000010: 93ec a2bc 4fcf 093a 4d1e 65bb 3597 e93b
0.0066191796 -0.01866775 -0.008876774 0.009411159 -0.019888198 0.00052570266 -0.0034960688 0.007128621

models.M_4.adaptive_layer_1.linear.weight f4 [8, 4]
00000000: 2565 7f3c 4a73 87be 1d51 ec3e 934f 0b3c
00000010: 47db 933d 4367 cfbd f08c 09be 5062 c03d
00000020: c89c f33d 10c9 3a3b 0225 80bd 1aa7 e33e
00000030: 4d32 13bd 5b9f adbe 227a 90bd 2ef9 d33e
00000040: 3e50 233d 3ec7 3a3d d351 58be fe7a a33b
00000050: 22e9 d3be 6e5a ccbe 8934 913e 894b de3e
00000060: 53e0 f13e 7e20 9ebe eb5f 4b3e 53c4 24be
00000070: be48 2b3e 9310 923e 95e0 bc3e 7533 633e
0.01558808 -0.26455146 0.46155635 0.008502859 0.07219558 -0.101271175 -0.1343267 0.093937516
0.11895138 0.002850119 -0.06257059 0.44463426 -0.035936642 -0.3391064 -0.07054545 0.41401047
0.039871447 0.04560017 -0.21124963 0.004989027 -0.41388804 -0.39912742 0.28360394 0.43417004
0.47241458 -0.30884165 0.19860809 -0.16090517 0.16726968 0.2852827 0.36890092 0.22187598

models.M_4.adaptive_layer_1.linear.bias f4 [8]
00000000: 870a 95b8 c19b 703a 7810 9039 2db9 1a3a
00000010: 7cfe b4ba 31fc b43a 6ce2 923a fb07 e2bd
-7.1068345e-05 0.00091784826 0.0002747809 0.0005902227 -0.0013808752 0.0013808069 0.0011206395 -0.110366784

models.M_4.bn1.weight f4 [8]
00000000: 397b 7b3f e226 4e3f 831a 7c3f ada2 773f
00000010: ae34 563f 20df 6b3f 0588 633f f3a7 743f
0.982349 0.8052808 0.98477954 0.967326 0.8367413 0.92137337 0.88879424 0.9556877

models.M_4.bn1.bias f4 [8]
00000000: 569b a4bc 714d fbbd 8cc5 9ebb 3ee3 3f3d
00000010: 5fd0 b4bd 3b5a f1bd 5d2d e0bc 3fe8 853d
-0.020093601 -0.1227063 -0.0048453268 0.046847574 -0.08828806 -0.11784788 -0.02736538 0.06538438

models.M_4.bn1.running_mean f4 [8]
00000000: 4b74 54bd 104e 51bd 6a98 853d 71c7 1ebe
00000010: dc21 87bc 1939 7fbe b91f 073d ea63 2e3e
-0.051868718 -0.051099837 0.06523211 -0.15505768 -0.016495638 -0.24924125 0.032989237 0.17030302

models.M_4.bn1.running_var f4 [8]
00000000: 0e1d 2d3c 1b23 143b b803 9f3b 29df 993b
00000010: 0307 623b bbc3 163c 5811 de3b 2154 eb3b
0.010566009 0.0022603932 0.004852738 0.004695792 0.0034489043 0.009201939 0.00677697 0.00718166

models.M_4.adaptive_layer_2.gate f4 [16]
00000000: 4ccb f539 25ee 2bbb a7ae c83a 1b32 313b
00000010: 2e49 99ba c516 96bb 758c 16b9 5f18 c0ba
00000020: d54d 203b d8c2 efb9 e2ca 81bb 2f2b ddba
00000030: 63bf 03bb e256 093a 9a35 143b 649a 9fb9
0.0004688151 -0.0026234474 0.001531084 0.0027037922 -0.0011694783 -0.004580351 -0.00014357439 -0.0014655701
0.0024460454 -0.00045730802 -0.003960953 -0.0016873832 -0.002010309 0.0005239082 0.0022614957 -0.00030441873

models.M_4.adaptive_layer_2.linear.weight f4 [16, 8]
00000000: ff93 d8bd 7cd6 2bbe 1f8e d9bc 377f 08be
00000010: 914f 96be 9c9d 16bb 87cd 863d b8fd 293e
00000020: b924 0f3e 2c66 37be 469d c5be 99e9 0e3b
00000030: 612f 2c3e fdff 4ebe 4769 483d 5f88 213e
00000040: 09db 5c3c 6892 12be 44f3 6a3e 450d b43d
00000050: 1509 953a 0ef9 46bd 487d 793e 7b84 14be
00000060: 1cb4 8b3e 99d3 27be 3d6b d23d 9461 c13b
00000070: 0e52 2bbd 46fb 9abc fa51 033e 2b2e 01be
00000080: 27bd 99be c88c 9ebd 03cc 813e 0841 aebc
00000090: e579 183d 1620 16bc 503d 753e a715 483e
000000a0: 6261 0d3e 3663 74be 1552 27be 5ac9 123c
000000b0: 95c6 6abe e194 2c3e 3c29 3abe 0ad7 123e
000000c0: 86ed 943e 202c 853d 8714 973d 2390 5fbe
000000d0: 4bea 5b3e 16cc d9bc 78ee 7cbe 8990 ab3e
000000e0: d2db 73be 808f 9d3b 5cdc 8a3e cb8a 2bbe
000000f0: 152a 4fbe acd3 9fbd 3bd3 bebd bc67 a9bd
00000100: ed39 4dbe f13b 49bd 4ba1 bcbd 535a 0cbe
00000110: 8a8d a2be 8d76 223e 8d5c 003e b9d4 2fbe
00000120: afec aa3e f528 b3bd 78d6 d93d 3bd0 cebd
00000130: 0038 c4bc b561 913e e2dc 5e3e 4a75 e4bd
00000140: 1da0 4a3e 9d80 27bc d11c 0e3e 26df 5d3e
00000150: c98f 693e 6dd3 45be 0934 433e 3a5a dbbd
00000160: f719 ab3c a199 4ebe 2c19 8bbd 81c4 2cbc
00000170: 5351 18be 60b6 13bd aa2c 933c a6c7 903e
00000180: 6256 813e 97e2 cb3d 7770 0a3e 97d7 733e
00000190: 977e 50bd 0632 063c d018 053e 414b 33be
000001a0: bc28 a0be 5ea3 073d d6dd dabd 5a4c ec39
000001b0: e5f4 afbc 2848 293d c5bf 1f3e 1ee9 0fbe
000001c0: a2bc 9c3e 2e8e 2c3e bb7e 46be 035f 5dbe
000001d0: 0576 5bbe 033e 41be deca 71bd 2e97 2a3d
000001e0: 554c f7bc 0b10 6fbe 87d9 41be 0811 43be
000001f0: fcc8 463e 9cd4 fbbd a3de 16be 997d 563e
-0.10575103 -0.16781038 -0.026557026 -0.13329779 -0.2935758 -0.0022982126 0.0658217 0.16600692
0.13978852 -0.17910069 -0.38596553 0.0021806716 0.16814949 -0.2021484 0.048928525 0.15774678
0.013479956 -0.14313662 0.22944361 0.087915935 0.0011370505 -0.04857736 0.24364197 -0.14503662
0.2728585 -0.16389312 0.1027436 0.005901525 -0.0418263 -0.018918645 0.1282424 -0.12615268
-0.30027124 -0.07741696 0.2535096 -0.021271244 0.037225623 -0.009162923 0.2394917 0.1953951
0.1380668 -0.23865971 -0.16339906 0.008959139 -0.22927316 0.16853668 -0.18179792 0.14339843
0.29087466 0.06502557 0.07376962 -0.21832328 0.21476094 -0.026586574 -0.24700344 0.3350871
-0.23814324 0.0048083663 0.27121246 -0.16752164 -0.20230897 -0.07804045 -0.09317633 -0.08271739
-0.20041628 -0.04912943 -0.09210452 -0.13706331 -0.3174861 0.15865536 0.12535305 -0.17170991
0.333837 -0.08748046 0.1063661 -0.100983106 -0.023952484 0.28394857 0.21763948 -0.111551836
0.19787641 -0.010223535 0.1387818 0.21667156 0.22808756 -0.19318934 0.19062819 -0.10710569
0.020886404 -0.20175792 -0.067919105 -0.010544897 -0.14874773 -0.0360626 0.017965633 0.2827732
0.25261217 0.09955328 0.13519464 0.2381271 -0.050901975 0.008190637 0.12997746 -0.17509176
-0.31281078 0.033114783 -0.10686843 0.00045070314 -0.02147908 0.04132858 0.15600498 -0.14053771
0.30612665 0.16851112 -0.19384281 -0.21618275 -0.2143174 -0.18871312 -0.05903136 0.041648082
-0.030187765 -0.23345964 -0.18930636 -0.19049466 0.19412607 -0.122964114 -0.14733367 0.20946349

models.M_4.adaptive_layer_2.linear.bias f4 [16]
00000000: ae4b 013b 4fb9 eab9 aa1b 4ab8 e7f2 223b
00000010: bb95 0fba 77b0 113b 08e0 8138 5cf0 bab9
00000020: ac60 c8ba 8381 c23a 4587 8bbb 1163 363b
00000030: f2f6 8bba 1da3 32ba 906e b2ba 988b a439
0.0019728946 -0.00044770024 -4.8186317e-05 0.002486402 -0.00054773287 0.0022230425 6.1929284e-05 -0.00035655766
-0.00152876 0.0014839623 -0.0042580687 0.0027830044 -0.0010678454 -0.0006814467 -0.0013613272 0.00031384523

models.M_4.bn2.weight f4 [16]
00000000: b477 373f fbee 363f 1234 433f d64d 613f
00000010: 8d5e 5c3f cc98 4c3f 2bc4 543f a64d 573f
00000020: 3b9e 3a3f d873 803f 7a02 473f c131 713f
00000030: fdff 763f 37c8 6a3f 1a9c 653f dcaf 4b3f
0.7166703 0.71458405 0.7625133 0.88009393 0.86081773 0.7992065 0.8311183 0.8410286
0.7289769 1.0035353 0.77738154 0.94216543 0.9648436 0.91711754 0.8969132 0.79565215

models.M_4.bn2.bias f4 [16]
00000000: 237d 16bd 8fdc 2ebc 39b7 073c 5487 95bb
00000010: 2156 a4bd 7e9d 09be 5ee1 793c cee1 a6bd
00000020: e11a d0bd e0ba c4bd 0762 a1bc 56b3 e23a
00000030: 8bda 9abd 732f f43b fd35 9d3c 622b 81bd
-0.036740433 -0.010672702 0.00828343 -0.0045632515 -0.0802424 -0.13438985 0.015251486 -0.081485376
-0.10161377 -0.09605956 -0.019700063 0.0017295878 -0.07561215 0.0074519455 0.019190783 -0.06307103

models.M_4.bn2.running_mean f4 [16]
00000000: c8c5 6fbe d5e1 90bd e716 fd3c f6d4 493d
00000010: 9095 693b 9426 bbbd 0115 503e 36a3 51be
00000020: d13c 52be 4cad 6e3e dc64 543e 5911 9ebd
00000030: 0cbe 3f3e 0e3b eabd 1fbe b0bd e63a 32be
-0.23415291 -0.07074324 0.03089471 0.04927536 0.0035642125 -0.091382176 0.20320512 -0.20472416
-0.20531012 0.23308295 0.207416 -0.077181526 0.18724841 -0.11437045 -0.08630013 -0.1740528

models.M_4.bn2.running_var f4 [16]
00000000: 4bfb 623d 4ab9 943d 54ab e23c e067 633d
00000010: b0ce b03c 4599 563d adde d33c e803 c33c
00000020: c055 273d c1b0 033e 6ad1 333d 3b75 273d
00000030: 3445 7f3d db65 e63c e7a5 9a3d 6373 893d
0.055415433 0.072619036 0.027669586 0.055518985 0.021582931 0.052392263 0.025863016 0.023805574
0.040853262 0.12860395 0.043900885 0.040883284 0.062321857 0.02812474 0.075511746 0.067114614

models.M_4.adaptive_layer_3.gate f4 [32]
00000000: e39d a736 e698 71ba 9f2f daba e66b 9fba
00000010: 1dd2 cfba 7a19 053a 1d42 e6ba 1eca b0ba
00000020: 2ce3 9bba a4b3 9bba f400 b0ba a122 c2ba
00000030: a930 a63a f663 f53a de29 13ba 557d 893a
00000040: b375 7dba c29a 0039 5855 4dba 05f6 593b
00000050: 8575 9e39 5c71 193b 5b5e a1ba 229e c439
00000060: b038 1c3b b645 873b 6163 c6ba d5b3 0f39
00000070: 5607 3e38 cbcb 4fba ee83 19bb 3c50 daba
4.9953683e-06 -0.0009216204 -0.0016646272 -0.0012162894 -0.0015855465 0.00050773437 -0.0017567311 -0.001348797
-0.0011893264 -0.0011879099 -0.0013428018 -0.0014811346 0.0012679297 0.0018721807 -0.00056138437 0.0010489622
-0.00096687226 0.00012264683 -0.00078328466 0.0033258211 0.00030223667 0.0023413515 -0.0012311445 0.0003750185
0.00238375 0.0041281832 -0.0015135818 0.00013704535 4.5306362e-05 -0.0007926791 -0.0023424583 -0.0016655992

models.M_4.adaptive_layer_3.linear.weight f4 [32, 16]
00000000: 5a46 4abe c6be 08bd 9f17 4fbe d42e 2f3d
00000010: 5f1b e43d 576a 9e3d 00e4 f7bd dcce 5bbc
00000020: 1266 c53c e0c7 b4bb 9abd 30bd c55f 6f3c
00000030: 1f36 d9bd af26 1cbd 6595 54bb e506 c8bd
00000040: 75ed 423d 72fa 4ebe de81 21bc 4951 743c
00000050: 858e bebd 31d6 143e a159 11bd 367d 33be
00000060: 7ec6 0dbd 59c3 01be 7e24 273b afd4 0abd
00000070: eb45 8abe 0957 67bc 3601 8cbd 968e 2fbe
00000080: 39d3 363d 39c5 8cbc 7201 89bc 92aa 053c
00000090: 6512 10be ffa9 313c 93f6 b13c 8246 61bd
000000a0: 8375 d3bb 95ba b63d 51b8 e53c 7383 51bd
000000b0: 03be 753d d2d0 d2bc 48ec 3bbd 8e23 793b
000000c0: ef97 b4bd 1b1a 14be dd04 23bd ce90 5fbe
000000d0: 2587 ac3d a39b 393e fbe1 4cbc 8f3a 17bd
000000e0: 55d5 06bd 0a35 1ebe f4cc 64bd 8bbd c8bd
000000f0: e242 84bd e26b a3bd 1bce 013d 042c 18bc
00000100: 5dea 36bd bd6e f23d 602e 9a3d fa85 503e
00000110: 52e2 123e b0ea 243e 09bc 843c 9bb7 443e
00000120: d241 093e 49a1 06be 5764 c5bd 280c 9f3d
00000130: affd 223d c862 e7bc e51a be3d 60be 5d3c
00000140: b3fe b33d 6a38 423c 5ec1 c53d 63f7 893d
00000150: 2840 893c cca2 b5bd 4dcb a03c 09ff b53c
00000160: fcb8 003e 21e5 64bb 0e89 233b c970 4f3e
00000170: 5ad7 b5bc d1e8 8abd 16cb ed3c eb7b e4bc
00000180: 0114 933c dd4c c3bd 32a0 1dbc 0f61 d13c
00000190: 7f16 9d3a 590e 8fbd ee90 93bd 14d0 dc3c
000001a0: 7175 d33d 587f 74bd 5803 293a 419c c0bc
000001b0: 2453 a1bc 9b9d b03d 78fe 953d 56b7 41bd
000001c0: 529e 253d 0478 5fbc 2b53 c3ba 1186 3c3e
000001d0: 391a e5bd 7631 58bc 9cbd 8ebd b0ea 81bd
000001e0: 21f4 ad3c fa3b c0bb 5990 71bd ce90 99bd
000001f0: 2234 883c 4d8a 94be d2bb 42bd c954 f6bd
00000200: 0852 fdbd 75e8 41bd ef40 42bd 335f 5e3d
00000210: 47e8 3dbd 5186 2cbd c9c6 6c3d 6132 8abd
00000220: 3118 f6bc a276 1dbe 840f 4bbb 13d0 49be
00000230: 5a61 a7bc 1d26 d33d 7657 1ebe 494f 39be
00000240: cf13 30be 75ba 0d3d da95 753c 0011 80bd
00000250: fe41 5d3d 80de a7bb 61fb 26be 2fbd f8bc
00000260: 3f01 f43c 1828 233d 5e3a 40bd a2e5 913b
00000270: 747a 2d3c 83e0 483d 60fd 25be 671f 193d
00000280: 0817 6bbd 079f 7d3e 1c69 453d 56e0 c4bd
00000290: af72 e23d 683b 30bd dd8d c2bd 5937 8a3b
000002a0: 948e 7d3c a12a 113e 5979 113d e12d 2f3e
000002b0: 19df 893d 0538 193d c510 483d 096d 6cbd
000002c0: 4a36 9abd 2921 d43c bde8 01bd 3c75 27bc
000002d0: 7f51 d53d 4b16 1dbe 0e2b f2bc 0f3c 203d
000002e0: 05d9 f7bd 45ed 13be 990c d43c 1e33 cf3d
000002f0: 568a 943d 3379 cf3c 01cf d0bd 0143 583d
00000300: 255f c63d 50c2 20be 2096 873c f5b7 0e3d
00000310: 6c93 6dbb 48cf 6a3d e40a 153e 075a 89bb
00000320: 1fd0 80bd de95 9c3d bd43 86bd 4600 fc3c
00000330: 830d a1bd 54c3 69bd 2a6a 53bd e70f 363e
00000340: 5ff8 723d c705 67bd 31a0 263e 6f9c 66be
00000350: 578e 74bc 1607 3d3e 5a14 ee3d 425e 53be
00000360: ddcb d33d 5000 c0bd 8edd 9c3b 4e3d 86bd
00000370: 334a 44be e8f6 5abe b27c 08be fff3 fb3b
00000380: 2670 0c3e 5047 03be bcdd 26bc 8875 d9bb
00000390: 68c6 b7bd 6b63 113d aaf7 e63d 5e19 fbbc
000003a0: cd0e 12be 8f23 73bd eb0b 143b ebc9 ba3d
000003b0: 40e8 d1bd 8b29 06be 99ed 803d 507f 693c
000003c0: 676e 2d3d 7b2f 02bd 47cc bd3b 98bc 4b3e
000003d0: e83b 10bd 3b6c 063e 17ab 133e 6e5e 9e3d
000003e0: 0b5d 863b 28bf a63c 6ac7 033e 6bff f5bd
000003f0: 526d 87bb 81be 003d 188a 7c3d 9735 debc
-0.197534 -0.03338506 -0.20223854 0.04276927 0.11138033 0.077351265 -0.121040344 -0.013416018
0.024096522 -0.005516991 -0.04314957 0.014610236 -0.10606026 -0.03812283 -0.003243768 -0.0976694
0.047589738 -0.20212725 -0.009857623 0.014911958 -0.09304527 0.14534833 -0.035485867 -0.17528233
-0.034613125 -0.12672175 0.0025503929 -0.033894237 -0.27006468 -0.014119872 -0.068361685 -0.17144236
0.04463503 -0.017183887 -0.016724322 0.008158343 -0.14069517 0.010843753 0.021724021 -0.054998882
-0.0064532175 0.089223064 0.02804199 -0.05115075 0.059995662 -0.025734339 -0.045879632 0.0038015577
-0.088180415 -0.14463083 -0.03979956 -0.21832582 0.08424214 0.18125777 -0.01250505 -0.03692108
-0.032918293 -0.1544992 -0.05585952 -0.098017775 -0.064580694 -0.079795614 0.031690698 -0.009287838
-0.0446571 0.11837528 0.075283766 0.20363608 0.14344147 0.16105151 0.016202943 0.19210665
0.13404015 -0.13147463 -0.09638279 0.077659905 0.039792713 -0.028245345 0.092824735 0.0135341585
0.087888144 0.0118542705 0.096560225 0.067366384 0.016754225 -0.08868942 0.019628191 0.022216337
0.12570566 -0.003492661 0.0024953517 0.20257868 -0.022197414 -0.067826875 0.029027503 -0.02789112
0.017953875 -0.09536145 -0.009620713 0.025558976 0.0011984854 -0.069851585 -0.072053775 0.026954688
0.103251345 -0.059691757 0.00064473366 -0.023512008 -0.019692965 0.08623811 0.07323927 -0.047293983
0.04043419 -0.013639454 -0.0014902105 0.18410517 -0.11186642 -0.013195386 -0.06969759 -0.06343591
0.021234574 -0.0058665248 -0.05897555 -0.074983224 0.016626421 -0.29011765 -0.0475424 -0.1202789
-0.12369162 -0.04734083 -0.047425207 0.054290008 -0.046364095 -0.04212028 0.057806764 -0.0674789
-0.030040832 -0.15377286 -0.003098459 -0.1970828 -0.020432163 0.10310004 -0.15463051 -0.18096651
-0.17195056 0.034601647 0.014989341 -0.062532425 0.054018013 -0.0051229596 -0.16306831 -0.030363647
0.02978575 0.03983316 -0.046930663 0.004452423 0.010588277 0.049042236 -0.16209936 0.037383463
-0.05739501 0.24767695 0.048195943 -0.09613101 0.110570304 -0.043025404 -0.094997145 0.0042180237
0.015475888 0.14176418 0.035516117 0.17107345 0.067320056 0.03740694 0.048844118 -0.05772117
-0.07529886 0.025894718 -0.031716097 -0.010220822 0.10415935 -0.15340535 -0.029561546 0.039119776
-0.1210194 -0.1444598 0.025884913 0.10117172 0.07252948 0.025326347 -0.10195733 0.052798275
0.09686116 -0.15699124 0.016551077 0.034843404 -0.00362512 0.057326585 0.14554936 -0.0041916403
-0.06289696 0.076457724 -0.06555889 0.03076185 -0.07863905 -0.057071045 -0.051614918 0.17779504
0.059318896 -0.056401994 0.16272046 -0.22520612 -0.014926515 0.18459734 0.116249755 -0.20641425
0.10341618 -0.093750596 0.0047871536 -0.06554662 -0.1916893 -0.2138325 -0.13328817 0.0076889987
0.13714656 -0.12820172 -0.0101847015 -0.0066363253 -0.0897339 0.035495203 0.11277707 -0.030651744
-0.14263459 -0.059360083 0.0022590111 0.09120544 -0.10249376 -0.13101785 0.06295318 0.014251545
0.042341616 -0.031783562 0.005792174 0.19896162 -0.03521338 0.13127224 0.14420734 0.07732855
0.004100447 0.020354822 0.12869039 -0.12011608 -0.004132905 0.03143168 0.061655134 -0.027125163

models.M_4.adaptive_layer_3.linear.bias f4 [32]
00000000: e9b9 c43a 6679 993a cc9a 733a d0e8 113a
00000010: a4f0 2eb9 9f82 3eba 3b3b 56bb f52d 34b9
00000020: e861 bd3a 0594 6b3a 6363 c7ba aa20 e0b9
00000030: f01e c83a bfa7 983a 2c70 0cba b7e8 0fba
00000040: aba8 673a 1122 9b3a fc48 4d3a 2b4a c1b8
00000050: de1c be3a 5caa b7ba 50aa b43a e8de 85ba
00000060: 23f0 4638 dc1a 6bba 06ac 973a 724d c73a
00000070: dcf1 c63a 4253 5e3a 8691 beba 9141 c83a
0.0015009019 0.0011709153 0.0009292781 0.0005566003 -0.00016683579 -0.0007267389 -0.0032689113 -0.00017183258
0.0014448734 0.0008986595 -0.0015212115 -0.00042748946 0.0015268009 0.0011646672 -0.0005357291 -0.00054896943
0.0008837084 0.0011835714 0.0007831005 -9.216772e-05 0.0014504453 -0.0014012563 0.0013783667 -0.0010213526
4.7430523e-05 -0.0008968541 0.0011571653 0.0015205576 0.0015178281 0.00084810343 -0.0014539219 0.0015278329

models.M_4.bn3.weight f4 [32]
00000000: ddfd 573f ebd3 553f 6aaa 273f ae96 583f
00000010: 8c92 763f 7a41 693f 4fbd 1a3f f873 593f
00000020: ceb0 623f 96c7 2f3f 7a09 4b3f 2ec4 463f
00000030: f517 533f 5cc4 5d3f 0dbe 463f 3eac 663f
00000040: 6b6d 5e3f 9eba 683f b2cf 253f aef3 383f
00000050: 2376 473f c132 6f3f 7b0a 433f 69b8 333f
00000060: 0659 773f 975b 7b3f b17e 763f a074 493f
00000070: e2d4 643f cce3 493f 93dd 6b3f c16b 6b3f
0.8437174 0.83526486 0.65494406 0.8460492 0.9631736 0.91115534 0.6044511 0.8494258
0.8855103 0.6866392 0.79311335 0.77643096 0.8245843 0.86627746 0.77633744 0.9010657
0.8688571 0.90909755 0.6477004 0.72246826 0.7791464 0.9343682 0.76187867 0.7020326
0.96620214 0.9818663 0.96287066 0.7869358 0.89387333 0.78863215 0.9213497 0.91961294

models.M_4.bn3.bias f4 [32]
00000000: ae9e 143d 93f5 61bb dd8b 24bd 345d 313d
00000010: 4565 2ebd a950 b4bd 4445 78bd 4b0d 3cbd
00000020: 48a5 0c3d 943e e63c 6a33 36bd 2d3c c4bd
00000030: e603 6dbd 530b 13bc 08c8 30bd 0c7f 28bd
00000040: 5908 f93c 72af 273d 5ae6 cf3c 1c30 12bd
00000050: 50a6 c93b 417b f3bd 38cd 8abc 9ef2 dabc
00000060: b2d8 85bd b25c e8bd 39c7 d93c 1797 d43c
00000070: 48f2 3ebd dd3f 98bd 45e0 c83c da28 8139
0.03628414 -0.003447865 -0.040172447 0.043301776 -0.042577047 -0.08804447 -0.06061293 -0.045911115
0.034337312 0.028106011 -0.044482626 -0.0958179 -0.057865046 -0.008974868 -0.043159515 -0.041136786
0.030399488 0.040938802 0.025378395 -0.035690412 0.006153859 -0.11888743 -0.016943559 -0.026727017
-0.06535472 -0.11345805 0.026584255 0.025950952 -0.046617776 -0.07434056 0.024521003 0.00024635234

models.M_4.bn3.running_mean f4 [32]
00000000: 9d8a 2cbe a141 a1be be00 3c3d 50dc 41be
00000010: db31 cf3e 8990 653e 2359 ac3d dded 3bbe
00000020: d3bb b2be 0a16 e0bd c1d1 533e 1d45 2fbe
00000030: 7044 bb3d 37f1 50be 638e 8dbd d4da 733e
00000040: 5234 afbe efdf 4bbe bbe3 8d3e b2e0 17be
00000050: 0405 aebe 96d5 3d3d 1491 753d cfbe e13d
00000060: be58 573e 7f73 393e cacb b9be e969 71be
00000070: 6b7f 2e3e db06 51be b1f8 4d3e d75c d0be
-0.16849752 -0.31495383 0.045899145 -0.18931699 0.40467724 0.22418417 0.08415439 -0.18352456
-0.34908924 -0.109417036 0.20685484 -0.17116208 0.09143913 -0.20404516 -0.06911924 0.23813945
-0.34219605 -0.19909643 0.27712807 -0.14831808 -0.33988202 0.04634627 0.05995281 0.11022722
0.21029946 0.18110465 -0.3628829 -0.23575558 0.17040794 -0.20412771 0.201144 -0.4069583

models.M_4.bn3.running_var f4 [32]
00000000: 6363 a83d ce04 2e3d 73c4 1b3d fd80 8b3d
00000010: 807c 093e d5f4 173e 4e1d 023d f7d0 d23c
00000020: d94c 173e 217d 263e 565d 693d a14f e23d
00000030: 6328 903d 9ec8 4b3d cec3 aa3d 1864 003e
00000040: f73b 923d 589b 1f3d 25f9 273d 97ee 303d
00000050: 892f 0a3e ed5a b53c 5372 6a3d 7e28 953d
00000060: 6c2d b43d d88b 023e d66d 633e 8cd1 653d
00000070: 862d aa3d f191 183d 2143 5f3d 9d32 533e
0.082220815 0.04248505 0.038029145 0.06811712 0.13426399 0.1483949 0.03176623 0.025734408
0.14775409 0.1625867 0.056973778 0.11050344 0.07038953 0.04975187 0.08338128 0.12538183
0.07140344 0.038966507 0.041009087 0.043196287 0.13494696 0.022138083 0.057237934 0.07283114
0.08797726 0.12748659 0.22209868 0.056108043 0.08309464 0.037248556 0.05450738 0.20624776
